{"format": "graph-model", "generatedBy": "2.2.0", "convertedBy": "TensorFlow.js Converter v2.8.2", "signature": {"inputs": {"input:0": {"name": "input:0", "dtype": "DT_FLOAT", "tensorShape": {"dim": [{"size": "1"}, {"size": "1"}, {"size": "64"}, {"size": "64"}]}}}, "outputs": {"Identity:0": {"name": "Identity:0", "dtype": "DT_FLOAT", "tensorShape": {"dim": [{"size": "-1"}, {"size": "3"}, {"size": "-1"}, {"size": "-1"}]}}}}, "modelTopology": {"node": [{"name": "PartitionedCall/zeros_like_22", "op": "Const", "attr": {"value": {"tensor": {"dtype": "DT_INT64", "tensorShape": {"dim": [{"size": "1"}]}}}, "dtype": {"type": "DT_INT64"}}}, {"name": "PartitionedCall/onnx_tf_prefix_Unsqueeze_191/dim", "op": "Const", "attr": {"value": {"tensor": {"dtype": "DT_INT32", "tensorShape": {}}}, "dtype": {"type": "DT_INT32"}}}, {"name": "PartitionedCall/zeros_11", "op": "Const", "attr": {"value": {"tensor": {"dtype": "DT_INT64", "tensorShape": {}}}, "dtype": {"type": "DT_INT64"}}}, {"name": "PartitionedCall/Const_86", "op": "Const", "attr": {"value": {"tensor": {"dtype": "DT_INT64", "tensorShape": {}}}, "dtype": {"type": "DT_INT64"}}}, {"name": "PartitionedCall/zeros_like_23", "op": "Const", "attr": {"value": {"tensor": {"dtype": "DT_INT64", "tensorShape": {"dim": [{"size": "1"}]}}}, "dtype": {"type": "DT_INT64"}}}, {"name": "PartitionedCall/onnx_tf_prefix_Gather_174", "op": "Const", "attr": {"value": {"tensor": {"dtype": "DT_INT64", "tensorShape": {}}}, "dtype": {"type": "DT_INT64"}}}, {"name": "ConstantFolding/PartitionedCall/onnx_tf_prefix_Div_182_recip", "op": "Const", "attr": {"value": {"tensor": {"dtype": "DT_DOUBLE", "tensorShape": {}}}, "dtype": {"type": "DT_DOUBLE"}}}, {"name": "PartitionedCall/onnx_tf_prefix_Constant_167", "op": "Const", "attr": {"value": {"tensor": {"dtype": "DT_INT64", "tensorShape": {}}}, "dtype": {"type": "DT_INT64"}}}, {"name": "PartitionedCall/onnx_tf_prefix_Gather_168/axis", "op": "Const", "attr": {"value": {"tensor": {"dtype": "DT_INT32", "tensorShape": {}}}, "dtype": {"type": "DT_INT32"}}}, {"name": "PartitionedCall/onnx_tf_prefix_Unsqueeze_192/dim", "op": "Const", "attr": {"value": {"tensor": {"dtype": "DT_INT32", "tensorShape": {}}}, "dtype": {"type": "DT_INT32"}}}, {"name": "PartitionedCall/zeros_like_19", "op": "Const", "attr": {"value": {"tensor": {"dtype": "DT_INT64", "tensorShape": {"dim": [{"size": "1"}]}}}, "dtype": {"type": "DT_INT64"}}}, {"name": "PartitionedCall/onnx_tf_prefix_Unsqueeze_187/dim", "op": "Const", "attr": {"value": {"tensor": {"dtype": "DT_INT32", "tensorShape": {}}}, "dtype": {"type": "DT_INT32"}}}, {"name": "PartitionedCall/zeros_10", "op": "Const", "attr": {"value": {"tensor": {"dtype": "DT_INT64", "tensorShape": {}}}, "dtype": {"type": "DT_INT64"}}}, {"name": "PartitionedCall/Const_83", "op": "Const", "attr": {"value": {"tensor": {"dtype": "DT_INT64", "tensorShape": {}}}, "dtype": {"type": "DT_INT64"}}}, {"name": "PartitionedCall/Shape_32", "op": "Const", "attr": {"value": {"tensor": {"dtype": "DT_INT64", "tensorShape": {"dim": [{"size": "4"}]}}}, "dtype": {"type": "DT_INT64"}}}, {"name": "PartitionedCall/zeros_like_20", "op": "Const", "attr": {"value": {"tensor": {"dtype": "DT_INT64", "tensorShape": {"dim": [{"size": "1"}]}}}, "dtype": {"type": "DT_INT64"}}}, {"name": "PartitionedCall/onnx_tf_prefix_Gather_171", "op": "Const", "attr": {"value": {"tensor": {"dtype": "DT_INT64", "tensorShape": {}}}, "dtype": {"type": "DT_INT64"}}}, {"name": "ConstantFolding/PartitionedCall/onnx_tf_prefix_Div_177_recip", "op": "Const", "attr": {"value": {"tensor": {"dtype": "DT_DOUBLE", "tensorShape": {}}}, "dtype": {"type": "DT_DOUBLE"}}}, {"name": "PartitionedCall/transpose_71/perm", "op": "Const", "attr": {"value": {"tensor": {"dtype": "DT_INT32", "tensorShape": {"dim": [{"size": "4"}]}}}, "dtype": {"type": "DT_INT32"}}}, {"name": "PartitionedCall/strided_slice_6", "op": "Const", "attr": {"value": {"tensor": {"dtype": "DT_FLOAT", "tensorShape": {"dim": [{"size": "2"}]}}}, "dtype": {"type": "DT_FLOAT"}}}, {"name": "PartitionedCall/zeros_like_16", "op": "Const", "attr": {"value": {"tensor": {"dtype": "DT_INT64", "tensorShape": {"dim": [{"size": "1"}]}}}, "dtype": {"type": "DT_INT64"}}}, {"name": "PartitionedCall/onnx_tf_prefix_Unsqueeze_150/dim", "op": "Const", "attr": {"value": {"tensor": {"dtype": "DT_INT32", "tensorShape": {}}}, "dtype": {"type": "DT_INT32"}}}, {"name": "PartitionedCall/zeros_9", "op": "Const", "attr": {"value": {"tensor": {"dtype": "DT_INT64", "tensorShape": {}}}, "dtype": {"type": "DT_INT64"}}}, {"name": "PartitionedCall/Const_72", "op": "Const", "attr": {"value": {"tensor": {"dtype": "DT_INT64", "tensorShape": {}}}, "dtype": {"type": "DT_INT64"}}}, {"name": "PartitionedCall/zeros_like_17", "op": "Const", "attr": {"value": {"tensor": {"dtype": "DT_INT64", "tensorShape": {"dim": [{"size": "1"}]}}}, "dtype": {"type": "DT_INT64"}}}, {"name": "PartitionedCall/onnx_tf_prefix_Constant_132", "op": "Const", "attr": {"value": {"tensor": {"dtype": "DT_INT64", "tensorShape": {}}}, "dtype": {"type": "DT_INT64"}}}, {"name": "PartitionedCall/onnx_tf_prefix_Gather_133/axis", "op": "Const", "attr": {"value": {"tensor": {"dtype": "DT_INT32", "tensorShape": {}}}, "dtype": {"type": "DT_INT32"}}}, {"name": "ConstantFolding/PartitionedCall/onnx_tf_prefix_Div_141_recip", "op": "Const", "attr": {"value": {"tensor": {"dtype": "DT_DOUBLE", "tensorShape": {}}}, "dtype": {"type": "DT_DOUBLE"}}}, {"name": "PartitionedCall/onnx_tf_prefix_Constant_126", "op": "Const", "attr": {"value": {"tensor": {"dtype": "DT_INT64", "tensorShape": {}}}, "dtype": {"type": "DT_INT64"}}}, {"name": "PartitionedCall/onnx_tf_prefix_Gather_127/axis", "op": "Const", "attr": {"value": {"tensor": {"dtype": "DT_INT32", "tensorShape": {}}}, "dtype": {"type": "DT_INT32"}}}, {"name": "PartitionedCall/onnx_tf_prefix_Unsqueeze_151/dim", "op": "Const", "attr": {"value": {"tensor": {"dtype": "DT_INT32", "tensorShape": {}}}, "dtype": {"type": "DT_INT32"}}}, {"name": "PartitionedCall/zeros_like_13", "op": "Const", "attr": {"value": {"tensor": {"dtype": "DT_INT64", "tensorShape": {"dim": [{"size": "1"}]}}}, "dtype": {"type": "DT_INT64"}}}, {"name": "PartitionedCall/onnx_tf_prefix_Unsqueeze_146/dim", "op": "Const", "attr": {"value": {"tensor": {"dtype": "DT_INT32", "tensorShape": {}}}, "dtype": {"type": "DT_INT32"}}}, {"name": "PartitionedCall/zeros_8", "op": "Const", "attr": {"value": {"tensor": {"dtype": "DT_INT64", "tensorShape": {}}}, "dtype": {"type": "DT_INT64"}}}, {"name": "PartitionedCall/Const_69", "op": "Const", "attr": {"value": {"tensor": {"dtype": "DT_INT64", "tensorShape": {}}}, "dtype": {"type": "DT_INT64"}}}, {"name": "PartitionedCall/zeros_like_14", "op": "Const", "attr": {"value": {"tensor": {"dtype": "DT_INT64", "tensorShape": {"dim": [{"size": "1"}]}}}, "dtype": {"type": "DT_INT64"}}}, {"name": "PartitionedCall/onnx_tf_prefix_Constant_129", "op": "Const", "attr": {"value": {"tensor": {"dtype": "DT_INT64", "tensorShape": {}}}, "dtype": {"type": "DT_INT64"}}}, {"name": "PartitionedCall/onnx_tf_prefix_Gather_130/axis", "op": "Const", "attr": {"value": {"tensor": {"dtype": "DT_INT32", "tensorShape": {}}}, "dtype": {"type": "DT_INT32"}}}, {"name": "ConstantFolding/PartitionedCall/onnx_tf_prefix_Div_136_recip", "op": "Const", "attr": {"value": {"tensor": {"dtype": "DT_DOUBLE", "tensorShape": {}}}, "dtype": {"type": "DT_DOUBLE"}}}, {"name": "PartitionedCall/transpose_60/perm", "op": "Const", "attr": {"value": {"tensor": {"dtype": "DT_INT32", "tensorShape": {"dim": [{"size": "4"}]}}}, "dtype": {"type": "DT_INT32"}}}, {"name": "PartitionedCall/strided_slice_4", "op": "Const", "attr": {"value": {"tensor": {"dtype": "DT_FLOAT", "tensorShape": {"dim": [{"size": "2"}]}}}, "dtype": {"type": "DT_FLOAT"}}}, {"name": "PartitionedCall/zeros_like_10", "op": "Const", "attr": {"value": {"tensor": {"dtype": "DT_INT64", "tensorShape": {"dim": [{"size": "1"}]}}}, "dtype": {"type": "DT_INT64"}}}, {"name": "PartitionedCall/onnx_tf_prefix_Unsqueeze_109/dim", "op": "Const", "attr": {"value": {"tensor": {"dtype": "DT_INT32", "tensorShape": {}}}, "dtype": {"type": "DT_INT32"}}}, {"name": "PartitionedCall/zeros_7", "op": "Const", "attr": {"value": {"tensor": {"dtype": "DT_INT64", "tensorShape": {}}}, "dtype": {"type": "DT_INT64"}}}, {"name": "PartitionedCall/Const_58", "op": "Const", "attr": {"value": {"tensor": {"dtype": "DT_INT64", "tensorShape": {}}}, "dtype": {"type": "DT_INT64"}}}, {"name": "PartitionedCall/zeros_like_11", "op": "Const", "attr": {"value": {"tensor": {"dtype": "DT_INT64", "tensorShape": {"dim": [{"size": "1"}]}}}, "dtype": {"type": "DT_INT64"}}}, {"name": "PartitionedCall/onnx_tf_prefix_Constant_91", "op": "Const", "attr": {"value": {"tensor": {"dtype": "DT_INT64", "tensorShape": {}}}, "dtype": {"type": "DT_INT64"}}}, {"name": "PartitionedCall/onnx_tf_prefix_Gather_92/axis", "op": "Const", "attr": {"value": {"tensor": {"dtype": "DT_INT32", "tensorShape": {}}}, "dtype": {"type": "DT_INT32"}}}, {"name": "ConstantFolding/PartitionedCall/onnx_tf_prefix_Div_100_recip", "op": "Const", "attr": {"value": {"tensor": {"dtype": "DT_DOUBLE", "tensorShape": {}}}, "dtype": {"type": "DT_DOUBLE"}}}, {"name": "PartitionedCall/onnx_tf_prefix_Constant_85", "op": "Const", "attr": {"value": {"tensor": {"dtype": "DT_INT64", "tensorShape": {}}}, "dtype": {"type": "DT_INT64"}}}, {"name": "PartitionedCall/onnx_tf_prefix_Gather_86/axis", "op": "Const", "attr": {"value": {"tensor": {"dtype": "DT_INT32", "tensorShape": {}}}, "dtype": {"type": "DT_INT32"}}}, {"name": "PartitionedCall/onnx_tf_prefix_Unsqueeze_110/dim", "op": "Const", "attr": {"value": {"tensor": {"dtype": "DT_INT32", "tensorShape": {}}}, "dtype": {"type": "DT_INT32"}}}, {"name": "PartitionedCall/zeros_like_7", "op": "Const", "attr": {"value": {"tensor": {"dtype": "DT_INT64", "tensorShape": {"dim": [{"size": "1"}]}}}, "dtype": {"type": "DT_INT64"}}}, {"name": "PartitionedCall/onnx_tf_prefix_Unsqueeze_105/dim", "op": "Const", "attr": {"value": {"tensor": {"dtype": "DT_INT32", "tensorShape": {}}}, "dtype": {"type": "DT_INT32"}}}, {"name": "PartitionedCall/zeros_6", "op": "Const", "attr": {"value": {"tensor": {"dtype": "DT_INT64", "tensorShape": {}}}, "dtype": {"type": "DT_INT64"}}}, {"name": "PartitionedCall/Const_55", "op": "Const", "attr": {"value": {"tensor": {"dtype": "DT_INT64", "tensorShape": {}}}, "dtype": {"type": "DT_INT64"}}}, {"name": "PartitionedCall/zeros_like_8", "op": "Const", "attr": {"value": {"tensor": {"dtype": "DT_INT64", "tensorShape": {"dim": [{"size": "1"}]}}}, "dtype": {"type": "DT_INT64"}}}, {"name": "PartitionedCall/onnx_tf_prefix_Constant_88", "op": "Const", "attr": {"value": {"tensor": {"dtype": "DT_INT64", "tensorShape": {}}}, "dtype": {"type": "DT_INT64"}}}, {"name": "PartitionedCall/onnx_tf_prefix_Gather_89/axis", "op": "Const", "attr": {"value": {"tensor": {"dtype": "DT_INT32", "tensorShape": {}}}, "dtype": {"type": "DT_INT32"}}}, {"name": "ConstantFolding/PartitionedCall/onnx_tf_prefix_Div_95_recip", "op": "Const", "attr": {"value": {"tensor": {"dtype": "DT_DOUBLE", "tensorShape": {}}}, "dtype": {"type": "DT_DOUBLE"}}}, {"name": "PartitionedCall/transpose_49/perm", "op": "Const", "attr": {"value": {"tensor": {"dtype": "DT_INT32", "tensorShape": {"dim": [{"size": "4"}]}}}, "dtype": {"type": "DT_INT32"}}}, {"name": "PartitionedCall/strided_slice_2", "op": "Const", "attr": {"value": {"tensor": {"dtype": "DT_FLOAT", "tensorShape": {"dim": [{"size": "2"}]}}}, "dtype": {"type": "DT_FLOAT"}}}, {"name": "PartitionedCall/zeros_like_4", "op": "Const", "attr": {"value": {"tensor": {"dtype": "DT_INT64", "tensorShape": {"dim": [{"size": "1"}]}}}, "dtype": {"type": "DT_INT64"}}}, {"name": "PartitionedCall/onnx_tf_prefix_Unsqueeze_68/dim", "op": "Const", "attr": {"value": {"tensor": {"dtype": "DT_INT32", "tensorShape": {}}}, "dtype": {"type": "DT_INT32"}}}, {"name": "PartitionedCall/zeros_5", "op": "Const", "attr": {"value": {"tensor": {"dtype": "DT_INT64", "tensorShape": {}}}, "dtype": {"type": "DT_INT64"}}}, {"name": "PartitionedCall/Const_44", "op": "Const", "attr": {"value": {"tensor": {"dtype": "DT_INT64", "tensorShape": {}}}, "dtype": {"type": "DT_INT64"}}}, {"name": "PartitionedCall/zeros_like_5", "op": "Const", "attr": {"value": {"tensor": {"dtype": "DT_INT64", "tensorShape": {"dim": [{"size": "1"}]}}}, "dtype": {"type": "DT_INT64"}}}, {"name": "PartitionedCall/onnx_tf_prefix_Constant_50", "op": "Const", "attr": {"value": {"tensor": {"dtype": "DT_INT64", "tensorShape": {}}}, "dtype": {"type": "DT_INT64"}}}, {"name": "PartitionedCall/onnx_tf_prefix_Gather_51/axis", "op": "Const", "attr": {"value": {"tensor": {"dtype": "DT_INT32", "tensorShape": {}}}, "dtype": {"type": "DT_INT32"}}}, {"name": "ConstantFolding/PartitionedCall/onnx_tf_prefix_Div_59_recip", "op": "Const", "attr": {"value": {"tensor": {"dtype": "DT_DOUBLE", "tensorShape": {}}}, "dtype": {"type": "DT_DOUBLE"}}}, {"name": "PartitionedCall/onnx_tf_prefix_Constant_44", "op": "Const", "attr": {"value": {"tensor": {"dtype": "DT_INT64", "tensorShape": {}}}, "dtype": {"type": "DT_INT64"}}}, {"name": "PartitionedCall/onnx_tf_prefix_Gather_45/axis", "op": "Const", "attr": {"value": {"tensor": {"dtype": "DT_INT32", "tensorShape": {}}}, "dtype": {"type": "DT_INT32"}}}, {"name": "PartitionedCall/onnx_tf_prefix_Unsqueeze_69/dim", "op": "Const", "attr": {"value": {"tensor": {"dtype": "DT_INT32", "tensorShape": {}}}, "dtype": {"type": "DT_INT32"}}}, {"name": "PartitionedCall/zeros_like_1", "op": "Const", "attr": {"value": {"tensor": {"dtype": "DT_INT64", "tensorShape": {"dim": [{"size": "1"}]}}}, "dtype": {"type": "DT_INT64"}}}, {"name": "PartitionedCall/onnx_tf_prefix_Unsqueeze_64/dim", "op": "Const", "attr": {"value": {"tensor": {"dtype": "DT_INT32", "tensorShape": {}}}, "dtype": {"type": "DT_INT32"}}}, {"name": "PartitionedCall/zeros_4", "op": "Const", "attr": {"value": {"tensor": {"dtype": "DT_INT64", "tensorShape": {}}}, "dtype": {"type": "DT_INT64"}}}, {"name": "PartitionedCall/Const_41", "op": "Const", "attr": {"value": {"tensor": {"dtype": "DT_INT64", "tensorShape": {}}}, "dtype": {"type": "DT_INT64"}}}, {"name": "PartitionedCall/zeros_like_2", "op": "Const", "attr": {"value": {"tensor": {"dtype": "DT_INT64", "tensorShape": {"dim": [{"size": "1"}]}}}, "dtype": {"type": "DT_INT64"}}}, {"name": "PartitionedCall/onnx_tf_prefix_Constant_47", "op": "Const", "attr": {"value": {"tensor": {"dtype": "DT_INT64", "tensorShape": {}}}, "dtype": {"type": "DT_INT64"}}}, {"name": "PartitionedCall/onnx_tf_prefix_Gather_48/axis", "op": "Const", "attr": {"value": {"tensor": {"dtype": "DT_INT32", "tensorShape": {}}}, "dtype": {"type": "DT_INT32"}}}, {"name": "ConstantFolding/PartitionedCall/onnx_tf_prefix_Div_54_recip", "op": "Const", "attr": {"value": {"tensor": {"dtype": "DT_DOUBLE", "tensorShape": {}}}, "dtype": {"type": "DT_DOUBLE"}}}, {"name": "PartitionedCall/transpose_38/perm", "op": "Const", "attr": {"value": {"tensor": {"dtype": "DT_INT32", "tensorShape": {"dim": [{"size": "4"}]}}}, "dtype": {"type": "DT_INT32"}}}, {"name": "PartitionedCall/strided_slice", "op": "Const", "attr": {"value": {"tensor": {"dtype": "DT_FLOAT", "tensorShape": {"dim": [{"size": "2"}]}}}, "dtype": {"type": "DT_FLOAT"}}}, {"name": "PartitionedCall/Const_30", "op": "Const", "attr": {"value": {"tensor": {"dtype": "DT_INT32", "tensorShape": {"dim": [{"size": "8"}]}}}, "dtype": {"type": "DT_INT32"}}}, {"name": "PartitionedCall/All_3", "op": "Const", "attr": {"value": {"tensor": {"dtype": "DT_BOOL", "tensorShape": {}}}, "dtype": {"type": "DT_BOOL"}}}, {"name": "PartitionedCall/transpose_30/perm", "op": "Const", "attr": {"value": {"tensor": {"dtype": "DT_INT32", "tensorShape": {"dim": [{"size": "4"}]}}}, "dtype": {"type": "DT_INT32"}}}, {"name": "PartitionedCall/transpose_31/perm", "op": "Const", "attr": {"value": {"tensor": {"dtype": "DT_INT32", "tensorShape": {"dim": [{"size": "4"}]}}}, "dtype": {"type": "DT_INT32"}}}, {"name": "PartitionedCall/Const_32", "op": "Const", "attr": {"value": {"tensor": {"dtype": "DT_INT32", "tensorShape": {"dim": [{"size": "4"}, {"size": "2"}]}}}, "dtype": {"type": "DT_INT32"}}}, {"name": "PartitionedCall/transpose_33/perm", "op": "Const", "attr": {"value": {"tensor": {"dtype": "DT_INT32", "tensorShape": {"dim": [{"size": "4"}]}}}, "dtype": {"type": "DT_INT32"}}}, {"name": "PartitionedCall/split_16", "op": "Const", "attr": {"value": {"tensor": {"dtype": "DT_FLOAT", "tensorShape": {"dim": [{"size": "3"}, {"size": "3"}, {"size": "512"}, {"size": "1024"}]}}}, "dtype": {"type": "DT_FLOAT"}}}, {"name": "unknown_48", "op": "Const", "attr": {"value": {"tensor": {"dtype": "DT_FLOAT", "tensorShape": {"dim": [{"size": "1024"}]}}}, "dtype": {"type": "DT_FLOAT"}}}, {"name": "PartitionedCall/transpose_34/perm", "op": "Const", "attr": {"value": {"tensor": {"dtype": "DT_INT32", "tensorShape": {"dim": [{"size": "4"}]}}}, "dtype": {"type": "DT_INT32"}}}, {"name": "PartitionedCall/onnx_tf_prefix_BatchNormalization_34/mul", "op": "Const", "attr": {"value": {"tensor": {"dtype": "DT_FLOAT", "tensorShape": {"dim": [{"size": "1"}, {"size": "1024"}, {"size": "1"}, {"size": "1"}]}}}, "dtype": {"type": "DT_FLOAT"}}}, {"name": "PartitionedCall/onnx_tf_prefix_BatchNormalization_34/sub", "op": "Const", "attr": {"value": {"tensor": {"dtype": "DT_FLOAT", "tensorShape": {"dim": [{"size": "1"}, {"size": "1024"}, {"size": "1"}, {"size": "1"}]}}}, "dtype": {"type": "DT_FLOAT"}}}, {"name": "PartitionedCall/Const_35", "op": "Const", "attr": {"value": {"tensor": {"dtype": "DT_INT32", "tensorShape": {"dim": [{"size": "4"}, {"size": "2"}]}}}, "dtype": {"type": "DT_INT32"}}}, {"name": "PartitionedCall/transpose_36/perm", "op": "Const", "attr": {"value": {"tensor": {"dtype": "DT_INT32", "tensorShape": {"dim": [{"size": "4"}]}}}, "dtype": {"type": "DT_INT32"}}}, {"name": "PartitionedCall/split_18", "op": "Const", "attr": {"value": {"tensor": {"dtype": "DT_FLOAT", "tensorShape": {"dim": [{"size": "3"}, {"size": "3"}, {"size": "1024"}, {"size": "1024"}]}}}, "dtype": {"type": "DT_FLOAT"}}}, {"name": "unknown_54", "op": "Const", "attr": {"value": {"tensor": {"dtype": "DT_FLOAT", "tensorShape": {"dim": [{"size": "1024"}]}}}, "dtype": {"type": "DT_FLOAT"}}}, {"name": "PartitionedCall/transpose_37/perm", "op": "Const", "attr": {"value": {"tensor": {"dtype": "DT_INT32", "tensorShape": {"dim": [{"size": "4"}]}}}, "dtype": {"type": "DT_INT32"}}}, {"name": "PartitionedCall/onnx_tf_prefix_BatchNormalization_37/mul", "op": "Const", "attr": {"value": {"tensor": {"dtype": "DT_FLOAT", "tensorShape": {"dim": [{"size": "1"}, {"size": "1024"}, {"size": "1"}, {"size": "1"}]}}}, "dtype": {"type": "DT_FLOAT"}}}, {"name": "PartitionedCall/onnx_tf_prefix_BatchNormalization_37/sub", "op": "Const", "attr": {"value": {"tensor": {"dtype": "DT_FLOAT", "tensorShape": {"dim": [{"size": "1"}, {"size": "1024"}, {"size": "1"}, {"size": "1"}]}}}, "dtype": {"type": "DT_FLOAT"}}}, {"name": "PartitionedCall/strided_slice_1/stack", "op": "Const", "attr": {"value": {"tensor": {"dtype": "DT_INT32", "tensorShape": {"dim": [{"size": "1"}]}}}, "dtype": {"type": "DT_INT32"}}}, {"name": "PartitionedCall/strided_slice_1/stack_1", "op": "Const", "attr": {"value": {"tensor": {"dtype": "DT_INT32", "tensorShape": {"dim": [{"size": "1"}]}}}, "dtype": {"type": "DT_INT32"}}}, {"name": "PartitionedCall/strided_slice_1/stack_2", "op": "Const", "attr": {"value": {"tensor": {"dtype": "DT_INT32", "tensorShape": {"dim": [{"size": "1"}]}}}, "dtype": {"type": "DT_INT32"}}}, {"name": "PartitionedCall/split_20", "op": "Const", "attr": {"value": {"tensor": {"dtype": "DT_FLOAT", "tensorShape": {"dim": [{"size": "1"}, {"size": "1"}, {"size": "1024"}, {"size": "512"}]}}}, "dtype": {"type": "DT_FLOAT"}}}, {"name": "unknown_61", "op": "Const", "attr": {"value": {"tensor": {"dtype": "DT_FLOAT", "tensorShape": {"dim": [{"size": "512"}]}}}, "dtype": {"type": "DT_FLOAT"}}}, {"name": "PartitionedCall/transpose_42/perm", "op": "Const", "attr": {"value": {"tensor": {"dtype": "DT_INT32", "tensorShape": {"dim": [{"size": "4"}]}}}, "dtype": {"type": "DT_INT32"}}}, {"name": "PartitionedCall/onnx_tf_prefix_Constant_41", "op": "Const", "attr": {"value": {"tensor": {"dtype": "DT_INT64", "tensorShape": {}}}, "dtype": {"type": "DT_INT64"}}}, {"name": "PartitionedCall/onnx_tf_prefix_Gather_42/axis", "op": "Const", "attr": {"value": {"tensor": {"dtype": "DT_INT32", "tensorShape": {}}}, "dtype": {"type": "DT_INT32"}}}, {"name": "PartitionedCall/onnx_tf_prefix_Unsqueeze_65/dim", "op": "Const", "attr": {"value": {"tensor": {"dtype": "DT_INT32", "tensorShape": {}}}, "dtype": {"type": "DT_INT32"}}}, {"name": "PartitionedCall/Const_22", "op": "Const", "attr": {"value": {"tensor": {"dtype": "DT_INT32", "tensorShape": {"dim": [{"size": "8"}]}}}, "dtype": {"type": "DT_INT32"}}}, {"name": "PartitionedCall/All_2", "op": "Const", "attr": {"value": {"tensor": {"dtype": "DT_BOOL", "tensorShape": {}}}, "dtype": {"type": "DT_BOOL"}}}, {"name": "PartitionedCall/transpose_22/perm", "op": "Const", "attr": {"value": {"tensor": {"dtype": "DT_INT32", "tensorShape": {"dim": [{"size": "4"}]}}}, "dtype": {"type": "DT_INT32"}}}, {"name": "PartitionedCall/transpose_23/perm", "op": "Const", "attr": {"value": {"tensor": {"dtype": "DT_INT32", "tensorShape": {"dim": [{"size": "4"}]}}}, "dtype": {"type": "DT_INT32"}}}, {"name": "PartitionedCall/Const_24", "op": "Const", "attr": {"value": {"tensor": {"dtype": "DT_INT32", "tensorShape": {"dim": [{"size": "4"}, {"size": "2"}]}}}, "dtype": {"type": "DT_INT32"}}}, {"name": "PartitionedCall/transpose_25/perm", "op": "Const", "attr": {"value": {"tensor": {"dtype": "DT_INT32", "tensorShape": {"dim": [{"size": "4"}]}}}, "dtype": {"type": "DT_INT32"}}}, {"name": "PartitionedCall/split_12", "op": "Const", "attr": {"value": {"tensor": {"dtype": "DT_FLOAT", "tensorShape": {"dim": [{"size": "3"}, {"size": "3"}, {"size": "256"}, {"size": "512"}]}}}, "dtype": {"type": "DT_FLOAT"}}}, {"name": "unknown_36", "op": "Const", "attr": {"value": {"tensor": {"dtype": "DT_FLOAT", "tensorShape": {"dim": [{"size": "512"}]}}}, "dtype": {"type": "DT_FLOAT"}}}, {"name": "PartitionedCall/transpose_26/perm", "op": "Const", "attr": {"value": {"tensor": {"dtype": "DT_INT32", "tensorShape": {"dim": [{"size": "4"}]}}}, "dtype": {"type": "DT_INT32"}}}, {"name": "PartitionedCall/onnx_tf_prefix_BatchNormalization_26/mul", "op": "Const", "attr": {"value": {"tensor": {"dtype": "DT_FLOAT", "tensorShape": {"dim": [{"size": "1"}, {"size": "512"}, {"size": "1"}, {"size": "1"}]}}}, "dtype": {"type": "DT_FLOAT"}}}, {"name": "PartitionedCall/onnx_tf_prefix_BatchNormalization_26/sub", "op": "Const", "attr": {"value": {"tensor": {"dtype": "DT_FLOAT", "tensorShape": {"dim": [{"size": "1"}, {"size": "512"}, {"size": "1"}, {"size": "1"}]}}}, "dtype": {"type": "DT_FLOAT"}}}, {"name": "PartitionedCall/Const_27", "op": "Const", "attr": {"value": {"tensor": {"dtype": "DT_INT32", "tensorShape": {"dim": [{"size": "4"}, {"size": "2"}]}}}, "dtype": {"type": "DT_INT32"}}}, {"name": "PartitionedCall/transpose_28/perm", "op": "Const", "attr": {"value": {"tensor": {"dtype": "DT_INT32", "tensorShape": {"dim": [{"size": "4"}]}}}, "dtype": {"type": "DT_INT32"}}}, {"name": "PartitionedCall/split_14", "op": "Const", "attr": {"value": {"tensor": {"dtype": "DT_FLOAT", "tensorShape": {"dim": [{"size": "3"}, {"size": "3"}, {"size": "512"}, {"size": "512"}]}}}, "dtype": {"type": "DT_FLOAT"}}}, {"name": "unknown_42", "op": "Const", "attr": {"value": {"tensor": {"dtype": "DT_FLOAT", "tensorShape": {"dim": [{"size": "512"}]}}}, "dtype": {"type": "DT_FLOAT"}}}, {"name": "PartitionedCall/transpose_29/perm", "op": "Const", "attr": {"value": {"tensor": {"dtype": "DT_INT32", "tensorShape": {"dim": [{"size": "4"}]}}}, "dtype": {"type": "DT_INT32"}}}, {"name": "PartitionedCall/onnx_tf_prefix_BatchNormalization_29/mul", "op": "Const", "attr": {"value": {"tensor": {"dtype": "DT_FLOAT", "tensorShape": {"dim": [{"size": "1"}, {"size": "512"}, {"size": "1"}, {"size": "1"}]}}}, "dtype": {"type": "DT_FLOAT"}}}, {"name": "PartitionedCall/onnx_tf_prefix_BatchNormalization_29/sub", "op": "Const", "attr": {"value": {"tensor": {"dtype": "DT_FLOAT", "tensorShape": {"dim": [{"size": "1"}, {"size": "512"}, {"size": "1"}, {"size": "1"}]}}}, "dtype": {"type": "DT_FLOAT"}}}, {"name": "PartitionedCall/Const_40", "op": "Const", "attr": {"value": {"tensor": {"dtype": "DT_INT64", "tensorShape": {}}}, "dtype": {"type": "DT_INT64"}}}, {"name": "PartitionedCall/ExpandDims", "op": "Const", "attr": {"value": {"tensor": {"dtype": "DT_INT64", "tensorShape": {"dim": [{"size": "1"}, {"size": "1"}]}}}, "dtype": {"type": "DT_INT64"}}}, {"name": "PartitionedCall/Cast_3", "op": "Const", "attr": {"value": {"tensor": {"dtype": "DT_INT64", "tensorShape": {"dim": [{"size": "1"}]}}}, "dtype": {"type": "DT_INT64"}}}, {"name": "PartitionedCall/onnx_tf_prefix_Constant_66", "op": "Const", "attr": {"value": {"tensor": {"dtype": "DT_INT64", "tensorShape": {"dim": [{"size": "1"}]}}}, "dtype": {"type": "DT_INT64"}}}, {"name": "PartitionedCall/Const_42", "op": "Const", "attr": {"value": {"tensor": {"dtype": "DT_INT64", "tensorShape": {}}}, "dtype": {"type": "DT_INT64"}}}, {"name": "PartitionedCall/Const_43", "op": "Const", "attr": {"value": {"tensor": {"dtype": "DT_INT64", "tensorShape": {}}}, "dtype": {"type": "DT_INT64"}}}, {"name": "PartitionedCall/ExpandDims_1", "op": "Const", "attr": {"value": {"tensor": {"dtype": "DT_INT64", "tensorShape": {"dim": [{"size": "1"}, {"size": "1"}]}}}, "dtype": {"type": "DT_INT64"}}}, {"name": "PartitionedCall/Cast_5", "op": "Const", "attr": {"value": {"tensor": {"dtype": "DT_INT64", "tensorShape": {"dim": [{"size": "1"}]}}}, "dtype": {"type": "DT_INT64"}}}, {"name": "PartitionedCall/onnx_tf_prefix_Constant_70", "op": "Const", "attr": {"value": {"tensor": {"dtype": "DT_INT64", "tensorShape": {"dim": [{"size": "1"}]}}}, "dtype": {"type": "DT_INT64"}}}, {"name": "PartitionedCall/Const_45", "op": "Const", "attr": {"value": {"tensor": {"dtype": "DT_INT64", "tensorShape": {}}}, "dtype": {"type": "DT_INT64"}}}, {"name": "PartitionedCall/onnx_tf_prefix_Concat_72/axis", "op": "Const", "attr": {"value": {"tensor": {"dtype": "DT_INT32", "tensorShape": {}}}, "dtype": {"type": "DT_INT32"}}}, {"name": "PartitionedCall/Const_46", "op": "Const", "attr": {"value": {"tensor": {"dtype": "DT_INT32", "tensorShape": {"dim": [{"size": "4"}, {"size": "2"}]}}}, "dtype": {"type": "DT_INT32"}}}, {"name": "PartitionedCall/transpose_44/perm", "op": "Const", "attr": {"value": {"tensor": {"dtype": "DT_INT32", "tensorShape": {"dim": [{"size": "4"}]}}}, "dtype": {"type": "DT_INT32"}}}, {"name": "PartitionedCall/split_22", "op": "Const", "attr": {"value": {"tensor": {"dtype": "DT_FLOAT", "tensorShape": {"dim": [{"size": "3"}, {"size": "3"}, {"size": "1024"}, {"size": "512"}]}}}, "dtype": {"type": "DT_FLOAT"}}}, {"name": "unknown_65", "op": "Const", "attr": {"value": {"tensor": {"dtype": "DT_FLOAT", "tensorShape": {"dim": [{"size": "512"}]}}}, "dtype": {"type": "DT_FLOAT"}}}, {"name": "PartitionedCall/transpose_45/perm", "op": "Const", "attr": {"value": {"tensor": {"dtype": "DT_INT32", "tensorShape": {"dim": [{"size": "4"}]}}}, "dtype": {"type": "DT_INT32"}}}, {"name": "PartitionedCall/onnx_tf_prefix_BatchNormalization_75/mul", "op": "Const", "attr": {"value": {"tensor": {"dtype": "DT_FLOAT", "tensorShape": {"dim": [{"size": "1"}, {"size": "512"}, {"size": "1"}, {"size": "1"}]}}}, "dtype": {"type": "DT_FLOAT"}}}, {"name": "PartitionedCall/onnx_tf_prefix_BatchNormalization_75/sub", "op": "Const", "attr": {"value": {"tensor": {"dtype": "DT_FLOAT", "tensorShape": {"dim": [{"size": "1"}, {"size": "512"}, {"size": "1"}, {"size": "1"}]}}}, "dtype": {"type": "DT_FLOAT"}}}, {"name": "PartitionedCall/Const_49", "op": "Const", "attr": {"value": {"tensor": {"dtype": "DT_INT32", "tensorShape": {"dim": [{"size": "4"}, {"size": "2"}]}}}, "dtype": {"type": "DT_INT32"}}}, {"name": "PartitionedCall/transpose_47/perm", "op": "Const", "attr": {"value": {"tensor": {"dtype": "DT_INT32", "tensorShape": {"dim": [{"size": "4"}]}}}, "dtype": {"type": "DT_INT32"}}}, {"name": "PartitionedCall/split_24", "op": "Const", "attr": {"value": {"tensor": {"dtype": "DT_FLOAT", "tensorShape": {"dim": [{"size": "3"}, {"size": "3"}, {"size": "512"}, {"size": "512"}]}}}, "dtype": {"type": "DT_FLOAT"}}}, {"name": "unknown_71", "op": "Const", "attr": {"value": {"tensor": {"dtype": "DT_FLOAT", "tensorShape": {"dim": [{"size": "512"}]}}}, "dtype": {"type": "DT_FLOAT"}}}, {"name": "PartitionedCall/transpose_48/perm", "op": "Const", "attr": {"value": {"tensor": {"dtype": "DT_INT32", "tensorShape": {"dim": [{"size": "4"}]}}}, "dtype": {"type": "DT_INT32"}}}, {"name": "PartitionedCall/onnx_tf_prefix_BatchNormalization_78/mul", "op": "Const", "attr": {"value": {"tensor": {"dtype": "DT_FLOAT", "tensorShape": {"dim": [{"size": "1"}, {"size": "512"}, {"size": "1"}, {"size": "1"}]}}}, "dtype": {"type": "DT_FLOAT"}}}, {"name": "PartitionedCall/onnx_tf_prefix_BatchNormalization_78/sub", "op": "Const", "attr": {"value": {"tensor": {"dtype": "DT_FLOAT", "tensorShape": {"dim": [{"size": "1"}, {"size": "512"}, {"size": "1"}, {"size": "1"}]}}}, "dtype": {"type": "DT_FLOAT"}}}, {"name": "PartitionedCall/strided_slice_3/stack", "op": "Const", "attr": {"value": {"tensor": {"dtype": "DT_INT32", "tensorShape": {"dim": [{"size": "1"}]}}}, "dtype": {"type": "DT_INT32"}}}, {"name": "PartitionedCall/strided_slice_3/stack_1", "op": "Const", "attr": {"value": {"tensor": {"dtype": "DT_INT32", "tensorShape": {"dim": [{"size": "1"}]}}}, "dtype": {"type": "DT_INT32"}}}, {"name": "PartitionedCall/strided_slice_3/stack_2", "op": "Const", "attr": {"value": {"tensor": {"dtype": "DT_INT32", "tensorShape": {"dim": [{"size": "1"}]}}}, "dtype": {"type": "DT_INT32"}}}, {"name": "PartitionedCall/split_26", "op": "Const", "attr": {"value": {"tensor": {"dtype": "DT_FLOAT", "tensorShape": {"dim": [{"size": "1"}, {"size": "1"}, {"size": "512"}, {"size": "256"}]}}}, "dtype": {"type": "DT_FLOAT"}}}, {"name": "unknown_78", "op": "Const", "attr": {"value": {"tensor": {"dtype": "DT_FLOAT", "tensorShape": {"dim": [{"size": "256"}]}}}, "dtype": {"type": "DT_FLOAT"}}}, {"name": "PartitionedCall/transpose_53/perm", "op": "Const", "attr": {"value": {"tensor": {"dtype": "DT_INT32", "tensorShape": {"dim": [{"size": "4"}]}}}, "dtype": {"type": "DT_INT32"}}}, {"name": "PartitionedCall/onnx_tf_prefix_Constant_82", "op": "Const", "attr": {"value": {"tensor": {"dtype": "DT_INT64", "tensorShape": {}}}, "dtype": {"type": "DT_INT64"}}}, {"name": "PartitionedCall/onnx_tf_prefix_Gather_83/axis", "op": "Const", "attr": {"value": {"tensor": {"dtype": "DT_INT32", "tensorShape": {}}}, "dtype": {"type": "DT_INT32"}}}, {"name": "PartitionedCall/onnx_tf_prefix_Unsqueeze_106/dim", "op": "Const", "attr": {"value": {"tensor": {"dtype": "DT_INT32", "tensorShape": {}}}, "dtype": {"type": "DT_INT32"}}}, {"name": "PartitionedCall/Const_14", "op": "Const", "attr": {"value": {"tensor": {"dtype": "DT_INT32", "tensorShape": {"dim": [{"size": "8"}]}}}, "dtype": {"type": "DT_INT32"}}}, {"name": "PartitionedCall/All_1", "op": "Const", "attr": {"value": {"tensor": {"dtype": "DT_BOOL", "tensorShape": {}}}, "dtype": {"type": "DT_BOOL"}}}, {"name": "PartitionedCall/transpose_14/perm", "op": "Const", "attr": {"value": {"tensor": {"dtype": "DT_INT32", "tensorShape": {"dim": [{"size": "4"}]}}}, "dtype": {"type": "DT_INT32"}}}, {"name": "PartitionedCall/transpose_15/perm", "op": "Const", "attr": {"value": {"tensor": {"dtype": "DT_INT32", "tensorShape": {"dim": [{"size": "4"}]}}}, "dtype": {"type": "DT_INT32"}}}, {"name": "PartitionedCall/Const_16", "op": "Const", "attr": {"value": {"tensor": {"dtype": "DT_INT32", "tensorShape": {"dim": [{"size": "4"}, {"size": "2"}]}}}, "dtype": {"type": "DT_INT32"}}}, {"name": "PartitionedCall/transpose_17/perm", "op": "Const", "attr": {"value": {"tensor": {"dtype": "DT_INT32", "tensorShape": {"dim": [{"size": "4"}]}}}, "dtype": {"type": "DT_INT32"}}}, {"name": "PartitionedCall/split_8", "op": "Const", "attr": {"value": {"tensor": {"dtype": "DT_FLOAT", "tensorShape": {"dim": [{"size": "3"}, {"size": "3"}, {"size": "128"}, {"size": "256"}]}}}, "dtype": {"type": "DT_FLOAT"}}}, {"name": "unknown_24", "op": "Const", "attr": {"value": {"tensor": {"dtype": "DT_FLOAT", "tensorShape": {"dim": [{"size": "256"}]}}}, "dtype": {"type": "DT_FLOAT"}}}, {"name": "PartitionedCall/transpose_18/perm", "op": "Const", "attr": {"value": {"tensor": {"dtype": "DT_INT32", "tensorShape": {"dim": [{"size": "4"}]}}}, "dtype": {"type": "DT_INT32"}}}, {"name": "PartitionedCall/onnx_tf_prefix_BatchNormalization_18/mul", "op": "Const", "attr": {"value": {"tensor": {"dtype": "DT_FLOAT", "tensorShape": {"dim": [{"size": "1"}, {"size": "256"}, {"size": "1"}, {"size": "1"}]}}}, "dtype": {"type": "DT_FLOAT"}}}, {"name": "PartitionedCall/onnx_tf_prefix_BatchNormalization_18/sub", "op": "Const", "attr": {"value": {"tensor": {"dtype": "DT_FLOAT", "tensorShape": {"dim": [{"size": "1"}, {"size": "256"}, {"size": "1"}, {"size": "1"}]}}}, "dtype": {"type": "DT_FLOAT"}}}, {"name": "PartitionedCall/Const_19", "op": "Const", "attr": {"value": {"tensor": {"dtype": "DT_INT32", "tensorShape": {"dim": [{"size": "4"}, {"size": "2"}]}}}, "dtype": {"type": "DT_INT32"}}}, {"name": "PartitionedCall/transpose_20/perm", "op": "Const", "attr": {"value": {"tensor": {"dtype": "DT_INT32", "tensorShape": {"dim": [{"size": "4"}]}}}, "dtype": {"type": "DT_INT32"}}}, {"name": "PartitionedCall/split_10", "op": "Const", "attr": {"value": {"tensor": {"dtype": "DT_FLOAT", "tensorShape": {"dim": [{"size": "3"}, {"size": "3"}, {"size": "256"}, {"size": "256"}]}}}, "dtype": {"type": "DT_FLOAT"}}}, {"name": "unknown_30", "op": "Const", "attr": {"value": {"tensor": {"dtype": "DT_FLOAT", "tensorShape": {"dim": [{"size": "256"}]}}}, "dtype": {"type": "DT_FLOAT"}}}, {"name": "PartitionedCall/transpose_21/perm", "op": "Const", "attr": {"value": {"tensor": {"dtype": "DT_INT32", "tensorShape": {"dim": [{"size": "4"}]}}}, "dtype": {"type": "DT_INT32"}}}, {"name": "PartitionedCall/onnx_tf_prefix_BatchNormalization_21/mul", "op": "Const", "attr": {"value": {"tensor": {"dtype": "DT_FLOAT", "tensorShape": {"dim": [{"size": "1"}, {"size": "256"}, {"size": "1"}, {"size": "1"}]}}}, "dtype": {"type": "DT_FLOAT"}}}, {"name": "PartitionedCall/onnx_tf_prefix_BatchNormalization_21/sub", "op": "Const", "attr": {"value": {"tensor": {"dtype": "DT_FLOAT", "tensorShape": {"dim": [{"size": "1"}, {"size": "256"}, {"size": "1"}, {"size": "1"}]}}}, "dtype": {"type": "DT_FLOAT"}}}, {"name": "PartitionedCall/Const_54", "op": "Const", "attr": {"value": {"tensor": {"dtype": "DT_INT64", "tensorShape": {}}}, "dtype": {"type": "DT_INT64"}}}, {"name": "PartitionedCall/ExpandDims_2", "op": "Const", "attr": {"value": {"tensor": {"dtype": "DT_INT64", "tensorShape": {"dim": [{"size": "1"}, {"size": "1"}]}}}, "dtype": {"type": "DT_INT64"}}}, {"name": "PartitionedCall/Cast_9", "op": "Const", "attr": {"value": {"tensor": {"dtype": "DT_INT64", "tensorShape": {"dim": [{"size": "1"}]}}}, "dtype": {"type": "DT_INT64"}}}, {"name": "PartitionedCall/onnx_tf_prefix_Constant_107", "op": "Const", "attr": {"value": {"tensor": {"dtype": "DT_INT64", "tensorShape": {"dim": [{"size": "1"}]}}}, "dtype": {"type": "DT_INT64"}}}, {"name": "PartitionedCall/Const_56", "op": "Const", "attr": {"value": {"tensor": {"dtype": "DT_INT64", "tensorShape": {}}}, "dtype": {"type": "DT_INT64"}}}, {"name": "PartitionedCall/Const_57", "op": "Const", "attr": {"value": {"tensor": {"dtype": "DT_INT64", "tensorShape": {}}}, "dtype": {"type": "DT_INT64"}}}, {"name": "PartitionedCall/ExpandDims_3", "op": "Const", "attr": {"value": {"tensor": {"dtype": "DT_INT64", "tensorShape": {"dim": [{"size": "1"}, {"size": "1"}]}}}, "dtype": {"type": "DT_INT64"}}}, {"name": "PartitionedCall/Cast_11", "op": "Const", "attr": {"value": {"tensor": {"dtype": "DT_INT64", "tensorShape": {"dim": [{"size": "1"}]}}}, "dtype": {"type": "DT_INT64"}}}, {"name": "PartitionedCall/onnx_tf_prefix_Constant_111", "op": "Const", "attr": {"value": {"tensor": {"dtype": "DT_INT64", "tensorShape": {"dim": [{"size": "1"}]}}}, "dtype": {"type": "DT_INT64"}}}, {"name": "PartitionedCall/Const_59", "op": "Const", "attr": {"value": {"tensor": {"dtype": "DT_INT64", "tensorShape": {}}}, "dtype": {"type": "DT_INT64"}}}, {"name": "PartitionedCall/onnx_tf_prefix_Concat_113/axis", "op": "Const", "attr": {"value": {"tensor": {"dtype": "DT_INT32", "tensorShape": {}}}, "dtype": {"type": "DT_INT32"}}}, {"name": "PartitionedCall/Const_60", "op": "Const", "attr": {"value": {"tensor": {"dtype": "DT_INT32", "tensorShape": {"dim": [{"size": "4"}, {"size": "2"}]}}}, "dtype": {"type": "DT_INT32"}}}, {"name": "PartitionedCall/transpose_55/perm", "op": "Const", "attr": {"value": {"tensor": {"dtype": "DT_INT32", "tensorShape": {"dim": [{"size": "4"}]}}}, "dtype": {"type": "DT_INT32"}}}, {"name": "PartitionedCall/split_28", "op": "Const", "attr": {"value": {"tensor": {"dtype": "DT_FLOAT", "tensorShape": {"dim": [{"size": "3"}, {"size": "3"}, {"size": "512"}, {"size": "256"}]}}}, "dtype": {"type": "DT_FLOAT"}}}, {"name": "unknown_82", "op": "Const", "attr": {"value": {"tensor": {"dtype": "DT_FLOAT", "tensorShape": {"dim": [{"size": "256"}]}}}, "dtype": {"type": "DT_FLOAT"}}}, {"name": "PartitionedCall/transpose_56/perm", "op": "Const", "attr": {"value": {"tensor": {"dtype": "DT_INT32", "tensorShape": {"dim": [{"size": "4"}]}}}, "dtype": {"type": "DT_INT32"}}}, {"name": "PartitionedCall/onnx_tf_prefix_BatchNormalization_116/mul", "op": "Const", "attr": {"value": {"tensor": {"dtype": "DT_FLOAT", "tensorShape": {"dim": [{"size": "1"}, {"size": "256"}, {"size": "1"}, {"size": "1"}]}}}, "dtype": {"type": "DT_FLOAT"}}}, {"name": "PartitionedCall/onnx_tf_prefix_BatchNormalization_116/sub", "op": "Const", "attr": {"value": {"tensor": {"dtype": "DT_FLOAT", "tensorShape": {"dim": [{"size": "1"}, {"size": "256"}, {"size": "1"}, {"size": "1"}]}}}, "dtype": {"type": "DT_FLOAT"}}}, {"name": "PartitionedCall/Const_63", "op": "Const", "attr": {"value": {"tensor": {"dtype": "DT_INT32", "tensorShape": {"dim": [{"size": "4"}, {"size": "2"}]}}}, "dtype": {"type": "DT_INT32"}}}, {"name": "PartitionedCall/transpose_58/perm", "op": "Const", "attr": {"value": {"tensor": {"dtype": "DT_INT32", "tensorShape": {"dim": [{"size": "4"}]}}}, "dtype": {"type": "DT_INT32"}}}, {"name": "PartitionedCall/split_30", "op": "Const", "attr": {"value": {"tensor": {"dtype": "DT_FLOAT", "tensorShape": {"dim": [{"size": "3"}, {"size": "3"}, {"size": "256"}, {"size": "256"}]}}}, "dtype": {"type": "DT_FLOAT"}}}, {"name": "unknown_88", "op": "Const", "attr": {"value": {"tensor": {"dtype": "DT_FLOAT", "tensorShape": {"dim": [{"size": "256"}]}}}, "dtype": {"type": "DT_FLOAT"}}}, {"name": "PartitionedCall/transpose_59/perm", "op": "Const", "attr": {"value": {"tensor": {"dtype": "DT_INT32", "tensorShape": {"dim": [{"size": "4"}]}}}, "dtype": {"type": "DT_INT32"}}}, {"name": "PartitionedCall/onnx_tf_prefix_BatchNormalization_119/mul", "op": "Const", "attr": {"value": {"tensor": {"dtype": "DT_FLOAT", "tensorShape": {"dim": [{"size": "1"}, {"size": "256"}, {"size": "1"}, {"size": "1"}]}}}, "dtype": {"type": "DT_FLOAT"}}}, {"name": "PartitionedCall/onnx_tf_prefix_BatchNormalization_119/sub", "op": "Const", "attr": {"value": {"tensor": {"dtype": "DT_FLOAT", "tensorShape": {"dim": [{"size": "1"}, {"size": "256"}, {"size": "1"}, {"size": "1"}]}}}, "dtype": {"type": "DT_FLOAT"}}}, {"name": "PartitionedCall/strided_slice_5/stack", "op": "Const", "attr": {"value": {"tensor": {"dtype": "DT_INT32", "tensorShape": {"dim": [{"size": "1"}]}}}, "dtype": {"type": "DT_INT32"}}}, {"name": "PartitionedCall/strided_slice_5/stack_1", "op": "Const", "attr": {"value": {"tensor": {"dtype": "DT_INT32", "tensorShape": {"dim": [{"size": "1"}]}}}, "dtype": {"type": "DT_INT32"}}}, {"name": "PartitionedCall/strided_slice_5/stack_2", "op": "Const", "attr": {"value": {"tensor": {"dtype": "DT_INT32", "tensorShape": {"dim": [{"size": "1"}]}}}, "dtype": {"type": "DT_INT32"}}}, {"name": "PartitionedCall/split_32", "op": "Const", "attr": {"value": {"tensor": {"dtype": "DT_FLOAT", "tensorShape": {"dim": [{"size": "1"}, {"size": "1"}, {"size": "256"}, {"size": "128"}]}}}, "dtype": {"type": "DT_FLOAT"}}}, {"name": "unknown_95", "op": "Const", "attr": {"value": {"tensor": {"dtype": "DT_FLOAT", "tensorShape": {"dim": [{"size": "128"}]}}}, "dtype": {"type": "DT_FLOAT"}}}, {"name": "PartitionedCall/transpose_64/perm", "op": "Const", "attr": {"value": {"tensor": {"dtype": "DT_INT32", "tensorShape": {"dim": [{"size": "4"}]}}}, "dtype": {"type": "DT_INT32"}}}, {"name": "PartitionedCall/onnx_tf_prefix_Constant_123", "op": "Const", "attr": {"value": {"tensor": {"dtype": "DT_INT64", "tensorShape": {}}}, "dtype": {"type": "DT_INT64"}}}, {"name": "PartitionedCall/onnx_tf_prefix_Gather_124/axis", "op": "Const", "attr": {"value": {"tensor": {"dtype": "DT_INT32", "tensorShape": {}}}, "dtype": {"type": "DT_INT32"}}}, {"name": "PartitionedCall/onnx_tf_prefix_Unsqueeze_147/dim", "op": "Const", "attr": {"value": {"tensor": {"dtype": "DT_INT32", "tensorShape": {}}}, "dtype": {"type": "DT_INT32"}}}, {"name": "PartitionedCall/Const", "op": "Const", "attr": {"value": {"tensor": {"dtype": "DT_INT32", "tensorShape": {"dim": [{"size": "4"}, {"size": "2"}]}}}, "dtype": {"type": "DT_INT32"}}}, {"name": "PartitionedCall/transpose_1/perm", "op": "Const", "attr": {"value": {"tensor": {"dtype": "DT_INT32", "tensorShape": {"dim": [{"size": "4"}]}}}, "dtype": {"type": "DT_INT32"}}}, {"name": "PartitionedCall/split", "op": "Const", "attr": {"value": {"tensor": {"dtype": "DT_FLOAT", "tensorShape": {"dim": [{"size": "3"}, {"size": "3"}, {"size": "1"}, {"size": "64"}]}}}, "dtype": {"type": "DT_FLOAT"}}}, {"name": "unknown_0", "op": "Const", "attr": {"value": {"tensor": {"dtype": "DT_FLOAT", "tensorShape": {"dim": [{"size": "64"}]}}}, "dtype": {"type": "DT_FLOAT"}}}, {"name": "PartitionedCall/transpose_2/perm", "op": "Const", "attr": {"value": {"tensor": {"dtype": "DT_INT32", "tensorShape": {"dim": [{"size": "4"}]}}}, "dtype": {"type": "DT_INT32"}}}, {"name": "PartitionedCall/onnx_tf_prefix_BatchNormalization_2/mul", "op": "Const", "attr": {"value": {"tensor": {"dtype": "DT_FLOAT", "tensorShape": {"dim": [{"size": "1"}, {"size": "64"}, {"size": "1"}, {"size": "1"}]}}}, "dtype": {"type": "DT_FLOAT"}}}, {"name": "PartitionedCall/onnx_tf_prefix_BatchNormalization_2/sub", "op": "Const", "attr": {"value": {"tensor": {"dtype": "DT_FLOAT", "tensorShape": {"dim": [{"size": "1"}, {"size": "64"}, {"size": "1"}, {"size": "1"}]}}}, "dtype": {"type": "DT_FLOAT"}}}, {"name": "PartitionedCall/Const_3", "op": "Const", "attr": {"value": {"tensor": {"dtype": "DT_INT32", "tensorShape": {"dim": [{"size": "4"}, {"size": "2"}]}}}, "dtype": {"type": "DT_INT32"}}}, {"name": "PartitionedCall/transpose_4/perm", "op": "Const", "attr": {"value": {"tensor": {"dtype": "DT_INT32", "tensorShape": {"dim": [{"size": "4"}]}}}, "dtype": {"type": "DT_INT32"}}}, {"name": "PartitionedCall/split_2", "op": "Const", "attr": {"value": {"tensor": {"dtype": "DT_FLOAT", "tensorShape": {"dim": [{"size": "3"}, {"size": "3"}, {"size": "64"}, {"size": "64"}]}}}, "dtype": {"type": "DT_FLOAT"}}}, {"name": "unknown_6", "op": "Const", "attr": {"value": {"tensor": {"dtype": "DT_FLOAT", "tensorShape": {"dim": [{"size": "64"}]}}}, "dtype": {"type": "DT_FLOAT"}}}, {"name": "PartitionedCall/transpose_5/perm", "op": "Const", "attr": {"value": {"tensor": {"dtype": "DT_INT32", "tensorShape": {"dim": [{"size": "4"}]}}}, "dtype": {"type": "DT_INT32"}}}, {"name": "PartitionedCall/onnx_tf_prefix_BatchNormalization_5/mul", "op": "Const", "attr": {"value": {"tensor": {"dtype": "DT_FLOAT", "tensorShape": {"dim": [{"size": "1"}, {"size": "64"}, {"size": "1"}, {"size": "1"}]}}}, "dtype": {"type": "DT_FLOAT"}}}, {"name": "PartitionedCall/onnx_tf_prefix_BatchNormalization_5/sub", "op": "Const", "attr": {"value": {"tensor": {"dtype": "DT_FLOAT", "tensorShape": {"dim": [{"size": "1"}, {"size": "64"}, {"size": "1"}, {"size": "1"}]}}}, "dtype": {"type": "DT_FLOAT"}}}, {"name": "PartitionedCall/Const_6", "op": "Const", "attr": {"value": {"tensor": {"dtype": "DT_INT32", "tensorShape": {"dim": [{"size": "8"}]}}}, "dtype": {"type": "DT_INT32"}}}, {"name": "PartitionedCall/All", "op": "Const", "attr": {"value": {"tensor": {"dtype": "DT_BOOL", "tensorShape": {}}}, "dtype": {"type": "DT_BOOL"}}}, {"name": "PartitionedCall/transpose_6/perm", "op": "Const", "attr": {"value": {"tensor": {"dtype": "DT_INT32", "tensorShape": {"dim": [{"size": "4"}]}}}, "dtype": {"type": "DT_INT32"}}}, {"name": "PartitionedCall/transpose_7/perm", "op": "Const", "attr": {"value": {"tensor": {"dtype": "DT_INT32", "tensorShape": {"dim": [{"size": "4"}]}}}, "dtype": {"type": "DT_INT32"}}}, {"name": "PartitionedCall/Const_8", "op": "Const", "attr": {"value": {"tensor": {"dtype": "DT_INT32", "tensorShape": {"dim": [{"size": "4"}, {"size": "2"}]}}}, "dtype": {"type": "DT_INT32"}}}, {"name": "PartitionedCall/transpose_9/perm", "op": "Const", "attr": {"value": {"tensor": {"dtype": "DT_INT32", "tensorShape": {"dim": [{"size": "4"}]}}}, "dtype": {"type": "DT_INT32"}}}, {"name": "PartitionedCall/split_4", "op": "Const", "attr": {"value": {"tensor": {"dtype": "DT_FLOAT", "tensorShape": {"dim": [{"size": "3"}, {"size": "3"}, {"size": "64"}, {"size": "128"}]}}}, "dtype": {"type": "DT_FLOAT"}}}, {"name": "unknown_12", "op": "Const", "attr": {"value": {"tensor": {"dtype": "DT_FLOAT", "tensorShape": {"dim": [{"size": "128"}]}}}, "dtype": {"type": "DT_FLOAT"}}}, {"name": "PartitionedCall/transpose_10/perm", "op": "Const", "attr": {"value": {"tensor": {"dtype": "DT_INT32", "tensorShape": {"dim": [{"size": "4"}]}}}, "dtype": {"type": "DT_INT32"}}}, {"name": "PartitionedCall/onnx_tf_prefix_BatchNormalization_10/mul", "op": "Const", "attr": {"value": {"tensor": {"dtype": "DT_FLOAT", "tensorShape": {"dim": [{"size": "1"}, {"size": "128"}, {"size": "1"}, {"size": "1"}]}}}, "dtype": {"type": "DT_FLOAT"}}}, {"name": "PartitionedCall/onnx_tf_prefix_BatchNormalization_10/sub", "op": "Const", "attr": {"value": {"tensor": {"dtype": "DT_FLOAT", "tensorShape": {"dim": [{"size": "1"}, {"size": "128"}, {"size": "1"}, {"size": "1"}]}}}, "dtype": {"type": "DT_FLOAT"}}}, {"name": "PartitionedCall/Const_11", "op": "Const", "attr": {"value": {"tensor": {"dtype": "DT_INT32", "tensorShape": {"dim": [{"size": "4"}, {"size": "2"}]}}}, "dtype": {"type": "DT_INT32"}}}, {"name": "PartitionedCall/transpose_12/perm", "op": "Const", "attr": {"value": {"tensor": {"dtype": "DT_INT32", "tensorShape": {"dim": [{"size": "4"}]}}}, "dtype": {"type": "DT_INT32"}}}, {"name": "PartitionedCall/split_6", "op": "Const", "attr": {"value": {"tensor": {"dtype": "DT_FLOAT", "tensorShape": {"dim": [{"size": "3"}, {"size": "3"}, {"size": "128"}, {"size": "128"}]}}}, "dtype": {"type": "DT_FLOAT"}}}, {"name": "unknown_18", "op": "Const", "attr": {"value": {"tensor": {"dtype": "DT_FLOAT", "tensorShape": {"dim": [{"size": "128"}]}}}, "dtype": {"type": "DT_FLOAT"}}}, {"name": "PartitionedCall/transpose_13/perm", "op": "Const", "attr": {"value": {"tensor": {"dtype": "DT_INT32", "tensorShape": {"dim": [{"size": "4"}]}}}, "dtype": {"type": "DT_INT32"}}}, {"name": "PartitionedCall/onnx_tf_prefix_BatchNormalization_13/mul", "op": "Const", "attr": {"value": {"tensor": {"dtype": "DT_FLOAT", "tensorShape": {"dim": [{"size": "1"}, {"size": "128"}, {"size": "1"}, {"size": "1"}]}}}, "dtype": {"type": "DT_FLOAT"}}}, {"name": "PartitionedCall/onnx_tf_prefix_BatchNormalization_13/sub", "op": "Const", "attr": {"value": {"tensor": {"dtype": "DT_FLOAT", "tensorShape": {"dim": [{"size": "1"}, {"size": "128"}, {"size": "1"}, {"size": "1"}]}}}, "dtype": {"type": "DT_FLOAT"}}}, {"name": "PartitionedCall/Const_68", "op": "Const", "attr": {"value": {"tensor": {"dtype": "DT_INT64", "tensorShape": {}}}, "dtype": {"type": "DT_INT64"}}}, {"name": "PartitionedCall/ExpandDims_4", "op": "Const", "attr": {"value": {"tensor": {"dtype": "DT_INT64", "tensorShape": {"dim": [{"size": "1"}, {"size": "1"}]}}}, "dtype": {"type": "DT_INT64"}}}, {"name": "PartitionedCall/Cast_15", "op": "Const", "attr": {"value": {"tensor": {"dtype": "DT_INT64", "tensorShape": {"dim": [{"size": "1"}]}}}, "dtype": {"type": "DT_INT64"}}}, {"name": "PartitionedCall/onnx_tf_prefix_Constant_148", "op": "Const", "attr": {"value": {"tensor": {"dtype": "DT_INT64", "tensorShape": {"dim": [{"size": "1"}]}}}, "dtype": {"type": "DT_INT64"}}}, {"name": "PartitionedCall/Const_70", "op": "Const", "attr": {"value": {"tensor": {"dtype": "DT_INT64", "tensorShape": {}}}, "dtype": {"type": "DT_INT64"}}}, {"name": "PartitionedCall/Const_71", "op": "Const", "attr": {"value": {"tensor": {"dtype": "DT_INT64", "tensorShape": {}}}, "dtype": {"type": "DT_INT64"}}}, {"name": "PartitionedCall/ExpandDims_5", "op": "Const", "attr": {"value": {"tensor": {"dtype": "DT_INT64", "tensorShape": {"dim": [{"size": "1"}, {"size": "1"}]}}}, "dtype": {"type": "DT_INT64"}}}, {"name": "PartitionedCall/Cast_17", "op": "Const", "attr": {"value": {"tensor": {"dtype": "DT_INT64", "tensorShape": {"dim": [{"size": "1"}]}}}, "dtype": {"type": "DT_INT64"}}}, {"name": "PartitionedCall/onnx_tf_prefix_Constant_152", "op": "Const", "attr": {"value": {"tensor": {"dtype": "DT_INT64", "tensorShape": {"dim": [{"size": "1"}]}}}, "dtype": {"type": "DT_INT64"}}}, {"name": "PartitionedCall/Const_73", "op": "Const", "attr": {"value": {"tensor": {"dtype": "DT_INT64", "tensorShape": {}}}, "dtype": {"type": "DT_INT64"}}}, {"name": "PartitionedCall/onnx_tf_prefix_Concat_154/axis", "op": "Const", "attr": {"value": {"tensor": {"dtype": "DT_INT32", "tensorShape": {}}}, "dtype": {"type": "DT_INT32"}}}, {"name": "PartitionedCall/Const_74", "op": "Const", "attr": {"value": {"tensor": {"dtype": "DT_INT32", "tensorShape": {"dim": [{"size": "4"}, {"size": "2"}]}}}, "dtype": {"type": "DT_INT32"}}}, {"name": "PartitionedCall/transpose_66/perm", "op": "Const", "attr": {"value": {"tensor": {"dtype": "DT_INT32", "tensorShape": {"dim": [{"size": "4"}]}}}, "dtype": {"type": "DT_INT32"}}}, {"name": "PartitionedCall/split_34", "op": "Const", "attr": {"value": {"tensor": {"dtype": "DT_FLOAT", "tensorShape": {"dim": [{"size": "3"}, {"size": "3"}, {"size": "256"}, {"size": "128"}]}}}, "dtype": {"type": "DT_FLOAT"}}}, {"name": "unknown_99", "op": "Const", "attr": {"value": {"tensor": {"dtype": "DT_FLOAT", "tensorShape": {"dim": [{"size": "128"}]}}}, "dtype": {"type": "DT_FLOAT"}}}, {"name": "PartitionedCall/transpose_67/perm", "op": "Const", "attr": {"value": {"tensor": {"dtype": "DT_INT32", "tensorShape": {"dim": [{"size": "4"}]}}}, "dtype": {"type": "DT_INT32"}}}, {"name": "PartitionedCall/onnx_tf_prefix_BatchNormalization_157/mul", "op": "Const", "attr": {"value": {"tensor": {"dtype": "DT_FLOAT", "tensorShape": {"dim": [{"size": "1"}, {"size": "128"}, {"size": "1"}, {"size": "1"}]}}}, "dtype": {"type": "DT_FLOAT"}}}, {"name": "PartitionedCall/onnx_tf_prefix_BatchNormalization_157/sub", "op": "Const", "attr": {"value": {"tensor": {"dtype": "DT_FLOAT", "tensorShape": {"dim": [{"size": "1"}, {"size": "128"}, {"size": "1"}, {"size": "1"}]}}}, "dtype": {"type": "DT_FLOAT"}}}, {"name": "PartitionedCall/Const_77", "op": "Const", "attr": {"value": {"tensor": {"dtype": "DT_INT32", "tensorShape": {"dim": [{"size": "4"}, {"size": "2"}]}}}, "dtype": {"type": "DT_INT32"}}}, {"name": "PartitionedCall/transpose_69/perm", "op": "Const", "attr": {"value": {"tensor": {"dtype": "DT_INT32", "tensorShape": {"dim": [{"size": "4"}]}}}, "dtype": {"type": "DT_INT32"}}}, {"name": "PartitionedCall/split_36", "op": "Const", "attr": {"value": {"tensor": {"dtype": "DT_FLOAT", "tensorShape": {"dim": [{"size": "3"}, {"size": "3"}, {"size": "128"}, {"size": "128"}]}}}, "dtype": {"type": "DT_FLOAT"}}}, {"name": "unknown_105", "op": "Const", "attr": {"value": {"tensor": {"dtype": "DT_FLOAT", "tensorShape": {"dim": [{"size": "128"}]}}}, "dtype": {"type": "DT_FLOAT"}}}, {"name": "PartitionedCall/transpose_70/perm", "op": "Const", "attr": {"value": {"tensor": {"dtype": "DT_INT32", "tensorShape": {"dim": [{"size": "4"}]}}}, "dtype": {"type": "DT_INT32"}}}, {"name": "PartitionedCall/onnx_tf_prefix_BatchNormalization_160/mul", "op": "Const", "attr": {"value": {"tensor": {"dtype": "DT_FLOAT", "tensorShape": {"dim": [{"size": "1"}, {"size": "128"}, {"size": "1"}, {"size": "1"}]}}}, "dtype": {"type": "DT_FLOAT"}}}, {"name": "PartitionedCall/onnx_tf_prefix_BatchNormalization_160/sub", "op": "Const", "attr": {"value": {"tensor": {"dtype": "DT_FLOAT", "tensorShape": {"dim": [{"size": "1"}, {"size": "128"}, {"size": "1"}, {"size": "1"}]}}}, "dtype": {"type": "DT_FLOAT"}}}, {"name": "PartitionedCall/strided_slice_7/stack", "op": "Const", "attr": {"value": {"tensor": {"dtype": "DT_INT32", "tensorShape": {"dim": [{"size": "1"}]}}}, "dtype": {"type": "DT_INT32"}}}, {"name": "PartitionedCall/strided_slice_7/stack_1", "op": "Const", "attr": {"value": {"tensor": {"dtype": "DT_INT32", "tensorShape": {"dim": [{"size": "1"}]}}}, "dtype": {"type": "DT_INT32"}}}, {"name": "PartitionedCall/strided_slice_7/stack_2", "op": "Const", "attr": {"value": {"tensor": {"dtype": "DT_INT32", "tensorShape": {"dim": [{"size": "1"}]}}}, "dtype": {"type": "DT_INT32"}}}, {"name": "PartitionedCall/split_38", "op": "Const", "attr": {"value": {"tensor": {"dtype": "DT_FLOAT", "tensorShape": {"dim": [{"size": "1"}, {"size": "1"}, {"size": "128"}, {"size": "64"}]}}}, "dtype": {"type": "DT_FLOAT"}}}, {"name": "unknown_112", "op": "Const", "attr": {"value": {"tensor": {"dtype": "DT_FLOAT", "tensorShape": {"dim": [{"size": "64"}]}}}, "dtype": {"type": "DT_FLOAT"}}}, {"name": "PartitionedCall/transpose_75/perm", "op": "Const", "attr": {"value": {"tensor": {"dtype": "DT_INT32", "tensorShape": {"dim": [{"size": "4"}]}}}, "dtype": {"type": "DT_INT32"}}}, {"name": "PartitionedCall/onnx_tf_prefix_Constant_164", "op": "Const", "attr": {"value": {"tensor": {"dtype": "DT_INT64", "tensorShape": {}}}, "dtype": {"type": "DT_INT64"}}}, {"name": "PartitionedCall/onnx_tf_prefix_Gather_165/axis", "op": "Const", "attr": {"value": {"tensor": {"dtype": "DT_INT32", "tensorShape": {}}}, "dtype": {"type": "DT_INT32"}}}, {"name": "PartitionedCall/onnx_tf_prefix_Unsqueeze_188/dim", "op": "Const", "attr": {"value": {"tensor": {"dtype": "DT_INT32", "tensorShape": {}}}, "dtype": {"type": "DT_INT32"}}}, {"name": "PartitionedCall/GatherNd_6", "op": "Const", "attr": {"value": {"tensor": {"dtype": "DT_INT64", "tensorShape": {"dim": [{"size": "1"}]}}}, "dtype": {"type": "DT_INT64"}}}, {"name": "PartitionedCall/Const_82", "op": "Const", "attr": {"value": {"tensor": {"dtype": "DT_INT64", "tensorShape": {}}}, "dtype": {"type": "DT_INT64"}}}, {"name": "PartitionedCall/ExpandDims_6", "op": "Const", "attr": {"value": {"tensor": {"dtype": "DT_INT64", "tensorShape": {"dim": [{"size": "1"}, {"size": "1"}]}}}, "dtype": {"type": "DT_INT64"}}}, {"name": "PartitionedCall/Cast_21", "op": "Const", "attr": {"value": {"tensor": {"dtype": "DT_INT64", "tensorShape": {"dim": [{"size": "1"}]}}}, "dtype": {"type": "DT_INT64"}}}, {"name": "PartitionedCall/onnx_tf_prefix_Constant_189", "op": "Const", "attr": {"value": {"tensor": {"dtype": "DT_INT64", "tensorShape": {"dim": [{"size": "1"}]}}}, "dtype": {"type": "DT_INT64"}}}, {"name": "PartitionedCall/Const_84", "op": "Const", "attr": {"value": {"tensor": {"dtype": "DT_INT64", "tensorShape": {}}}, "dtype": {"type": "DT_INT64"}}}, {"name": "PartitionedCall/Const_85", "op": "Const", "attr": {"value": {"tensor": {"dtype": "DT_INT64", "tensorShape": {}}}, "dtype": {"type": "DT_INT64"}}}, {"name": "PartitionedCall/ExpandDims_7", "op": "Const", "attr": {"value": {"tensor": {"dtype": "DT_INT64", "tensorShape": {"dim": [{"size": "1"}, {"size": "1"}]}}}, "dtype": {"type": "DT_INT64"}}}, {"name": "PartitionedCall/Cast_23", "op": "Const", "attr": {"value": {"tensor": {"dtype": "DT_INT64", "tensorShape": {"dim": [{"size": "1"}]}}}, "dtype": {"type": "DT_INT64"}}}, {"name": "PartitionedCall/onnx_tf_prefix_Constant_193", "op": "Const", "attr": {"value": {"tensor": {"dtype": "DT_INT64", "tensorShape": {"dim": [{"size": "1"}]}}}, "dtype": {"type": "DT_INT64"}}}, {"name": "PartitionedCall/Const_87", "op": "Const", "attr": {"value": {"tensor": {"dtype": "DT_INT64", "tensorShape": {}}}, "dtype": {"type": "DT_INT64"}}}, {"name": "PartitionedCall/onnx_tf_prefix_Concat_195/axis", "op": "Const", "attr": {"value": {"tensor": {"dtype": "DT_INT32", "tensorShape": {}}}, "dtype": {"type": "DT_INT32"}}}, {"name": "PartitionedCall/Const_88", "op": "Const", "attr": {"value": {"tensor": {"dtype": "DT_INT32", "tensorShape": {"dim": [{"size": "4"}, {"size": "2"}]}}}, "dtype": {"type": "DT_INT32"}}}, {"name": "PartitionedCall/transpose_77/perm", "op": "Const", "attr": {"value": {"tensor": {"dtype": "DT_INT32", "tensorShape": {"dim": [{"size": "4"}]}}}, "dtype": {"type": "DT_INT32"}}}, {"name": "PartitionedCall/split_40", "op": "Const", "attr": {"value": {"tensor": {"dtype": "DT_FLOAT", "tensorShape": {"dim": [{"size": "3"}, {"size": "3"}, {"size": "128"}, {"size": "64"}]}}}, "dtype": {"type": "DT_FLOAT"}}}, {"name": "unknown_116", "op": "Const", "attr": {"value": {"tensor": {"dtype": "DT_FLOAT", "tensorShape": {"dim": [{"size": "64"}]}}}, "dtype": {"type": "DT_FLOAT"}}}, {"name": "PartitionedCall/transpose_78/perm", "op": "Const", "attr": {"value": {"tensor": {"dtype": "DT_INT32", "tensorShape": {"dim": [{"size": "4"}]}}}, "dtype": {"type": "DT_INT32"}}}, {"name": "PartitionedCall/onnx_tf_prefix_BatchNormalization_198/mul", "op": "Const", "attr": {"value": {"tensor": {"dtype": "DT_FLOAT", "tensorShape": {"dim": [{"size": "1"}, {"size": "64"}, {"size": "1"}, {"size": "1"}]}}}, "dtype": {"type": "DT_FLOAT"}}}, {"name": "PartitionedCall/onnx_tf_prefix_BatchNormalization_198/sub", "op": "Const", "attr": {"value": {"tensor": {"dtype": "DT_FLOAT", "tensorShape": {"dim": [{"size": "1"}, {"size": "64"}, {"size": "1"}, {"size": "1"}]}}}, "dtype": {"type": "DT_FLOAT"}}}, {"name": "PartitionedCall/Const_91", "op": "Const", "attr": {"value": {"tensor": {"dtype": "DT_INT32", "tensorShape": {"dim": [{"size": "4"}, {"size": "2"}]}}}, "dtype": {"type": "DT_INT32"}}}, {"name": "PartitionedCall/transpose_80/perm", "op": "Const", "attr": {"value": {"tensor": {"dtype": "DT_INT32", "tensorShape": {"dim": [{"size": "4"}]}}}, "dtype": {"type": "DT_INT32"}}}, {"name": "PartitionedCall/split_42", "op": "Const", "attr": {"value": {"tensor": {"dtype": "DT_FLOAT", "tensorShape": {"dim": [{"size": "3"}, {"size": "3"}, {"size": "64"}, {"size": "64"}]}}}, "dtype": {"type": "DT_FLOAT"}}}, {"name": "unknown_122", "op": "Const", "attr": {"value": {"tensor": {"dtype": "DT_FLOAT", "tensorShape": {"dim": [{"size": "64"}]}}}, "dtype": {"type": "DT_FLOAT"}}}, {"name": "PartitionedCall/transpose_81/perm", "op": "Const", "attr": {"value": {"tensor": {"dtype": "DT_INT32", "tensorShape": {"dim": [{"size": "4"}]}}}, "dtype": {"type": "DT_INT32"}}}, {"name": "PartitionedCall/onnx_tf_prefix_BatchNormalization_201/mul", "op": "Const", "attr": {"value": {"tensor": {"dtype": "DT_FLOAT", "tensorShape": {"dim": [{"size": "1"}, {"size": "64"}, {"size": "1"}, {"size": "1"}]}}}, "dtype": {"type": "DT_FLOAT"}}}, {"name": "PartitionedCall/onnx_tf_prefix_BatchNormalization_201/sub", "op": "Const", "attr": {"value": {"tensor": {"dtype": "DT_FLOAT", "tensorShape": {"dim": [{"size": "1"}, {"size": "64"}, {"size": "1"}, {"size": "1"}]}}}, "dtype": {"type": "DT_FLOAT"}}}, {"name": "PartitionedCall/transpose_83/perm", "op": "Const", "attr": {"value": {"tensor": {"dtype": "DT_INT32", "tensorShape": {"dim": [{"size": "4"}]}}}, "dtype": {"type": "DT_INT32"}}}, {"name": "PartitionedCall/split_44", "op": "Const", "attr": {"value": {"tensor": {"dtype": "DT_FLOAT", "tensorShape": {"dim": [{"size": "1"}, {"size": "1"}, {"size": "64"}, {"size": "3"}]}}}, "dtype": {"type": "DT_FLOAT"}}}, {"name": "unknown_128", "op": "Const", "attr": {"value": {"tensor": {"dtype": "DT_FLOAT", "tensorShape": {"dim": [{"size": "3"}]}}}, "dtype": {"type": "DT_FLOAT"}}}, {"name": "PartitionedCall/transpose_84/perm", "op": "Const", "attr": {"value": {"tensor": {"dtype": "DT_INT32", "tensorShape": {"dim": [{"size": "4"}]}}}, "dtype": {"type": "DT_INT32"}}}, {"name": "PartitionedCall/onnx_tf_prefix_Transpose_203/perm", "op": "Const", "attr": {"value": {"tensor": {"dtype": "DT_INT32", "tensorShape": {"dim": [{"size": "4"}]}}}, "dtype": {"type": "DT_INT32"}}}, {"name": "PartitionedCall/onnx_tf_prefix_Transpose_205/perm", "op": "Const", "attr": {"value": {"tensor": {"dtype": "DT_INT32", "tensorShape": {"dim": [{"size": "4"}]}}}, "dtype": {"type": "DT_INT32"}}}, {"name": "input", "op": "Placeholder", "attr": {"shape": {"shape": {"dim": [{"size": "1"}, {"size": "1"}, {"size": "64"}, {"size": "64"}]}}, "dtype": {"type": "DT_FLOAT"}}}, {"name": "PartitionedCall/cond_3/PartitionedCall/Const_30/_164", "op": "Switch", "input": ["PartitionedCall/Const_30", "PartitionedCall/All_3"], "attr": {"T": {"type": "DT_INT32"}}}, {"name": "PartitionedCall/cond_3/switch_pred/_161", "op": "Switch", "input": ["PartitionedCall/All_3", "PartitionedCall/All_3"], "attr": {"T": {"type": "DT_BOOL"}}}, {"name": "PartitionedCall/cond_2/PartitionedCall/Const_22/_155", "op": "Switch", "input": ["PartitionedCall/Const_22", "PartitionedCall/All_2"], "attr": {"T": {"type": "DT_INT32"}}}, {"name": "PartitionedCall/cond_2/switch_pred/_152", "op": "Switch", "input": ["PartitionedCall/All_2", "PartitionedCall/All_2"], "attr": {"T": {"type": "DT_BOOL"}}}, {"name": "PartitionedCall/SparseToDense_2", "op": "SparseToDense", "input": ["PartitionedCall/ExpandDims", "PartitionedCall/Cast_3", "PartitionedCall/onnx_tf_prefix_Constant_66", "PartitionedCall/Const_42"], "attr": {"Tindices": {"type": "DT_INT64"}, "T": {"type": "DT_INT64"}, "validate_indices": {"b": true}}}, {"name": "PartitionedCall/SparseToDense_5", "op": "SparseToDense", "input": ["PartitionedCall/ExpandDims_1", "PartitionedCall/Cast_5", "PartitionedCall/onnx_tf_prefix_Constant_70", "PartitionedCall/Const_45"], "attr": {"Tindices": {"type": "DT_INT64"}, "T": {"type": "DT_INT64"}, "validate_indices": {"b": true}}}, {"name": "PartitionedCall/cond_1/PartitionedCall/Const_14/_146", "op": "Switch", "input": ["PartitionedCall/Const_14", "PartitionedCall/All_1"], "attr": {"T": {"type": "DT_INT32"}}}, {"name": "PartitionedCall/cond_1/switch_pred/_143", "op": "Switch", "input": ["PartitionedCall/All_1", "PartitionedCall/All_1"], "attr": {"T": {"type": "DT_BOOL"}}}, {"name": "PartitionedCall/SparseToDense_8", "op": "SparseToDense", "input": ["PartitionedCall/ExpandDims_2", "PartitionedCall/Cast_9", "PartitionedCall/onnx_tf_prefix_Constant_107", "PartitionedCall/Const_56"], "attr": {"Tindices": {"type": "DT_INT64"}, "T": {"type": "DT_INT64"}, "validate_indices": {"b": true}}}, {"name": "PartitionedCall/SparseToDense_11", "op": "SparseToDense", "input": ["PartitionedCall/ExpandDims_3", "PartitionedCall/Cast_11", "PartitionedCall/onnx_tf_prefix_Constant_111", "PartitionedCall/Const_59"], "attr": {"Tindices": {"type": "DT_INT64"}, "T": {"type": "DT_INT64"}, "validate_indices": {"b": true}}}, {"name": "PartitionedCall/cond/PartitionedCall/Const_6/_137", "op": "Switch", "input": ["PartitionedCall/Const_6", "PartitionedCall/All"], "attr": {"T": {"type": "DT_INT32"}}}, {"name": "PartitionedCall/cond/switch_pred/_134", "op": "Switch", "input": ["PartitionedCall/All", "PartitionedCall/All"], "attr": {"T": {"type": "DT_BOOL"}}}, {"name": "PartitionedCall/SparseToDense_14", "op": "SparseToDense", "input": ["PartitionedCall/ExpandDims_4", "PartitionedCall/Cast_15", "PartitionedCall/onnx_tf_prefix_Constant_148", "PartitionedCall/Const_70"], "attr": {"Tindices": {"type": "DT_INT64"}, "T": {"type": "DT_INT64"}, "validate_indices": {"b": true}}}, {"name": "PartitionedCall/SparseToDense_17", "op": "SparseToDense", "input": ["PartitionedCall/ExpandDims_5", "PartitionedCall/Cast_17", "PartitionedCall/onnx_tf_prefix_Constant_152", "PartitionedCall/Const_73"], "attr": {"Tindices": {"type": "DT_INT64"}, "T": {"type": "DT_INT64"}, "validate_indices": {"b": true}}}, {"name": "PartitionedCall/SparseToDense_20", "op": "SparseToDense", "input": ["PartitionedCall/ExpandDims_6", "PartitionedCall/Cast_21", "PartitionedCall/onnx_tf_prefix_Constant_189", "PartitionedCall/Const_84"], "attr": {"Tindices": {"type": "DT_INT64"}, "T": {"type": "DT_INT64"}, "validate_indices": {"b": true}}}, {"name": "PartitionedCall/SparseToDense_23", "op": "SparseToDense", "input": ["PartitionedCall/ExpandDims_7", "PartitionedCall/Cast_23", "PartitionedCall/onnx_tf_prefix_Constant_193", "PartitionedCall/Const_87"], "attr": {"Tindices": {"type": "DT_INT64"}, "T": {"type": "DT_INT64"}, "validate_indices": {"b": true}}}, {"name": "PartitionedCall/Pad", "op": "Pad", "input": ["input", "PartitionedCall/Const"], "attr": {"Tpaddings": {"type": "DT_INT32"}, "T": {"type": "DT_FLOAT"}}}, {"name": "PartitionedCall/cond_3/pivot_f/_162", "op": "Identity", "input": ["PartitionedCall/cond_3/switch_pred/_161"], "attr": {"T": {"type": "DT_BOOL"}}}, {"name": "PartitionedCall/cond_2/pivot_f/_153", "op": "Identity", "input": ["PartitionedCall/cond_2/switch_pred/_152"], "attr": {"T": {"type": "DT_BOOL"}}}, {"name": "PartitionedCall/cond_1/pivot_f/_144", "op": "Identity", "input": ["PartitionedCall/cond_1/switch_pred/_143"], "attr": {"T": {"type": "DT_BOOL"}}}, {"name": "PartitionedCall/cond/pivot_f/_135", "op": "Identity", "input": ["PartitionedCall/cond/switch_pred/_134"], "attr": {"T": {"type": "DT_BOOL"}}}, {"name": "PartitionedCall/transpose_1", "op": "Transpose", "input": ["PartitionedCall/Pad", "PartitionedCall/transpose_1/perm"], "attr": {"Tperm": {"type": "DT_INT32"}, "T": {"type": "DT_FLOAT"}}}, {"name": "PartitionedCall/cond_3/else/_160/range_1", "op": "Const", "input": ["^PartitionedCall/cond_3/pivot_f/_162"], "attr": {"value": {"tensor": {"dtype": "DT_INT32", "tensorShape": {"dim": [{"size": "4"}]}}}, "dtype": {"type": "DT_INT32"}}}, {"name": "PartitionedCall/cond_3/else/_160/GatherV2_1/axis", "op": "Const", "input": ["^PartitionedCall/cond_3/pivot_f/_162"], "attr": {"value": {"tensor": {"dtype": "DT_INT32", "tensorShape": {}}}, "dtype": {"type": "DT_INT32"}}}, {"name": "PartitionedCall/cond_3/else/_160/range", "op": "Const", "input": ["^PartitionedCall/cond_3/pivot_f/_162"], "attr": {"value": {"tensor": {"dtype": "DT_INT32", "tensorShape": {"dim": [{"size": "4"}]}}}, "dtype": {"type": "DT_INT32"}}}, {"name": "PartitionedCall/cond_3/else/_160/GatherV2/axis", "op": "Const", "input": ["^PartitionedCall/cond_3/pivot_f/_162"], "attr": {"value": {"tensor": {"dtype": "DT_INT32", "tensorShape": {}}}, "dtype": {"type": "DT_INT32"}}}, {"name": "PartitionedCall/cond_2/else/_151/range_1", "op": "Const", "input": ["^PartitionedCall/cond_2/pivot_f/_153"], "attr": {"value": {"tensor": {"dtype": "DT_INT32", "tensorShape": {"dim": [{"size": "4"}]}}}, "dtype": {"type": "DT_INT32"}}}, {"name": "PartitionedCall/cond_2/else/_151/GatherV2_1/axis", "op": "Const", "input": ["^PartitionedCall/cond_2/pivot_f/_153"], "attr": {"value": {"tensor": {"dtype": "DT_INT32", "tensorShape": {}}}, "dtype": {"type": "DT_INT32"}}}, {"name": "PartitionedCall/cond_2/else/_151/range", "op": "Const", "input": ["^PartitionedCall/cond_2/pivot_f/_153"], "attr": {"value": {"tensor": {"dtype": "DT_INT32", "tensorShape": {"dim": [{"size": "4"}]}}}, "dtype": {"type": "DT_INT32"}}}, {"name": "PartitionedCall/cond_2/else/_151/GatherV2/axis", "op": "Const", "input": ["^PartitionedCall/cond_2/pivot_f/_153"], "attr": {"value": {"tensor": {"dtype": "DT_INT32", "tensorShape": {}}}, "dtype": {"type": "DT_INT32"}}}, {"name": "PartitionedCall/cond_1/else/_142/range_1", "op": "Const", "input": ["^PartitionedCall/cond_1/pivot_f/_144"], "attr": {"value": {"tensor": {"dtype": "DT_INT32", "tensorShape": {"dim": [{"size": "4"}]}}}, "dtype": {"type": "DT_INT32"}}}, {"name": "PartitionedCall/cond_1/else/_142/GatherV2_1/axis", "op": "Const", "input": ["^PartitionedCall/cond_1/pivot_f/_144"], "attr": {"value": {"tensor": {"dtype": "DT_INT32", "tensorShape": {}}}, "dtype": {"type": "DT_INT32"}}}, {"name": "PartitionedCall/cond_1/else/_142/range", "op": "Const", "input": ["^PartitionedCall/cond_1/pivot_f/_144"], "attr": {"value": {"tensor": {"dtype": "DT_INT32", "tensorShape": {"dim": [{"size": "4"}]}}}, "dtype": {"type": "DT_INT32"}}}, {"name": "PartitionedCall/cond_1/else/_142/GatherV2/axis", "op": "Const", "input": ["^PartitionedCall/cond_1/pivot_f/_144"], "attr": {"value": {"tensor": {"dtype": "DT_INT32", "tensorShape": {}}}, "dtype": {"type": "DT_INT32"}}}, {"name": "PartitionedCall/cond/else/_133/Shape", "op": "Const", "input": ["^PartitionedCall/cond/pivot_f/_135"], "attr": {"value": {"tensor": {"dtype": "DT_INT32", "tensorShape": {"dim": [{"size": "4"}]}}}, "dtype": {"type": "DT_INT32"}}}, {"name": "PartitionedCall/cond/else/_133/range_1", "op": "Const", "input": ["^PartitionedCall/cond/pivot_f/_135"], "attr": {"value": {"tensor": {"dtype": "DT_INT32", "tensorShape": {"dim": [{"size": "4"}]}}}, "dtype": {"type": "DT_INT32"}}}, {"name": "PartitionedCall/cond/else/_133/GatherV2_1/axis", "op": "Const", "input": ["^PartitionedCall/cond/pivot_f/_135"], "attr": {"value": {"tensor": {"dtype": "DT_INT32", "tensorShape": {}}}, "dtype": {"type": "DT_INT32"}}}, {"name": "PartitionedCall/cond/else/_133/range", "op": "Const", "input": ["^PartitionedCall/cond/pivot_f/_135"], "attr": {"value": {"tensor": {"dtype": "DT_INT32", "tensorShape": {"dim": [{"size": "4"}]}}}, "dtype": {"type": "DT_INT32"}}}, {"name": "PartitionedCall/cond/else/_133/GatherV2/axis", "op": "Const", "input": ["^PartitionedCall/cond/pivot_f/_135"], "attr": {"value": {"tensor": {"dtype": "DT_INT32", "tensorShape": {}}}, "dtype": {"type": "DT_INT32"}}}, {"name": "PartitionedCall/convolution", "op": "Conv2D", "input": ["PartitionedCall/transpose_1", "PartitionedCall/split"], "device": "/device:CPU:0", "attr": {"padding": {"s": "VkFMSUQ="}, "dilations": {"list": {"i": ["1", "1", "1", "1"]}}, "T": {"type": "DT_FLOAT"}, "strides": {"list": {"i": ["1", "1", "1", "1"]}}, "data_format": {"s": "TkhXQw=="}, "explicit_paddings": {"list": {}}, "use_cudnn_on_gpu": {"b": true}}}, {"name": "PartitionedCall/cond_3/else/_160/GatherV2_1", "op": "GatherV2", "input": ["PartitionedCall/cond_3/PartitionedCall/Const_30/_164", "PartitionedCall/cond_3/else/_160/range_1", "PartitionedCall/cond_3/else/_160/GatherV2_1/axis"], "attr": {"Taxis": {"type": "DT_INT32"}, "batch_dims": {"i": "0"}, "Tindices": {"type": "DT_INT32"}, "Tparams": {"type": "DT_INT32"}}}, {"name": "PartitionedCall/cond_3/else/_160/GatherV2", "op": "GatherV2", "input": ["PartitionedCall/cond_3/PartitionedCall/Const_30/_164", "PartitionedCall/cond_3/else/_160/range", "PartitionedCall/cond_3/else/_160/GatherV2/axis"], "attr": {"Taxis": {"type": "DT_INT32"}, "batch_dims": {"i": "0"}, "Tindices": {"type": "DT_INT32"}, "Tparams": {"type": "DT_INT32"}}}, {"name": "PartitionedCall/cond_2/else/_151/GatherV2_1", "op": "GatherV2", "input": ["PartitionedCall/cond_2/PartitionedCall/Const_22/_155", "PartitionedCall/cond_2/else/_151/range_1", "PartitionedCall/cond_2/else/_151/GatherV2_1/axis"], "attr": {"Taxis": {"type": "DT_INT32"}, "batch_dims": {"i": "0"}, "Tindices": {"type": "DT_INT32"}, "Tparams": {"type": "DT_INT32"}}}, {"name": "PartitionedCall/cond_2/else/_151/GatherV2", "op": "GatherV2", "input": ["PartitionedCall/cond_2/PartitionedCall/Const_22/_155", "PartitionedCall/cond_2/else/_151/range", "PartitionedCall/cond_2/else/_151/GatherV2/axis"], "attr": {"Taxis": {"type": "DT_INT32"}, "batch_dims": {"i": "0"}, "Tindices": {"type": "DT_INT32"}, "Tparams": {"type": "DT_INT32"}}}, {"name": "PartitionedCall/cond_1/else/_142/GatherV2_1", "op": "GatherV2", "input": ["PartitionedCall/cond_1/PartitionedCall/Const_14/_146", "PartitionedCall/cond_1/else/_142/range_1", "PartitionedCall/cond_1/else/_142/GatherV2_1/axis"], "attr": {"Taxis": {"type": "DT_INT32"}, "batch_dims": {"i": "0"}, "Tindices": {"type": "DT_INT32"}, "Tparams": {"type": "DT_INT32"}}}, {"name": "PartitionedCall/cond_1/else/_142/GatherV2", "op": "GatherV2", "input": ["PartitionedCall/cond_1/PartitionedCall/Const_14/_146", "PartitionedCall/cond_1/else/_142/range", "PartitionedCall/cond_1/else/_142/GatherV2/axis"], "attr": {"Taxis": {"type": "DT_INT32"}, "batch_dims": {"i": "0"}, "Tindices": {"type": "DT_INT32"}, "Tparams": {"type": "DT_INT32"}}}, {"name": "PartitionedCall/cond/else/_133/GatherV2_1", "op": "GatherV2", "input": ["PartitionedCall/cond/PartitionedCall/Const_6/_137", "PartitionedCall/cond/else/_133/range_1", "PartitionedCall/cond/else/_133/GatherV2_1/axis"], "attr": {"Taxis": {"type": "DT_INT32"}, "batch_dims": {"i": "0"}, "Tindices": {"type": "DT_INT32"}, "Tparams": {"type": "DT_INT32"}}}, {"name": "PartitionedCall/cond/else/_133/GatherV2", "op": "GatherV2", "input": ["PartitionedCall/cond/PartitionedCall/Const_6/_137", "PartitionedCall/cond/else/_133/range", "PartitionedCall/cond/else/_133/GatherV2/axis"], "attr": {"Taxis": {"type": "DT_INT32"}, "batch_dims": {"i": "0"}, "Tindices": {"type": "DT_INT32"}, "Tparams": {"type": "DT_INT32"}}}, {"name": "PartitionedCall/Add", "op": "Add", "input": ["PartitionedCall/convolution", "unknown_0"], "attr": {"T": {"type": "DT_FLOAT"}}}, {"name": "PartitionedCall/cond_3/else/_160/Neg", "op": "Neg", "input": ["PartitionedCall/cond_3/else/_160/GatherV2"], "attr": {"T": {"type": "DT_INT32"}}}, {"name": "PartitionedCall/cond_2/else/_151/Neg", "op": "Neg", "input": ["PartitionedCall/cond_2/else/_151/GatherV2"], "attr": {"T": {"type": "DT_INT32"}}}, {"name": "PartitionedCall/cond_1/else/_142/Neg", "op": "Neg", "input": ["PartitionedCall/cond_1/else/_142/GatherV2"], "attr": {"T": {"type": "DT_INT32"}}}, {"name": "PartitionedCall/cond/else/_133/Neg", "op": "Neg", "input": ["PartitionedCall/cond/else/_133/GatherV2"], "attr": {"T": {"type": "DT_INT32"}}}, {"name": "PartitionedCall/cond/else/_133/ArithmeticOptimizer/AddOpsRewrite_sub", "op": "AddN", "input": ["PartitionedCall/cond/else/_133/Shape", "PartitionedCall/cond/else/_133/GatherV2_1", "PartitionedCall/cond/else/_133/GatherV2"], "attr": {"N": {"i": "3"}, "_grappler_ArithmeticOptimizer_AddOpsRewriteStage": {"b": true}, "T": {"type": "DT_INT32"}}}, {"name": "PartitionedCall/transpose_2", "op": "Transpose", "input": ["PartitionedCall/Add", "PartitionedCall/transpose_2/perm"], "attr": {"Tperm": {"type": "DT_INT32"}, "T": {"type": "DT_FLOAT"}}}, {"name": "PartitionedCall/onnx_tf_prefix_Relu_1", "op": "Relu", "input": ["PartitionedCall/transpose_2"], "attr": {"T": {"type": "DT_FLOAT"}}}, {"name": "PartitionedCall/onnx_tf_prefix_BatchNormalization_2/mul_1", "op": "Mul", "input": ["PartitionedCall/onnx_tf_prefix_Relu_1", "PartitionedCall/onnx_tf_prefix_BatchNormalization_2/mul"], "attr": {"T": {"type": "DT_FLOAT"}}}, {"name": "PartitionedCall/onnx_tf_prefix_BatchNormalization_2/add_1", "op": "AddV2", "input": ["PartitionedCall/onnx_tf_prefix_BatchNormalization_2/mul_1", "PartitionedCall/onnx_tf_prefix_BatchNormalization_2/sub"], "attr": {"T": {"type": "DT_FLOAT"}}}, {"name": "PartitionedCall/Pad_1", "op": "Pad", "input": ["PartitionedCall/onnx_tf_prefix_BatchNormalization_2/add_1", "PartitionedCall/Const_3"], "attr": {"Tpaddings": {"type": "DT_INT32"}, "T": {"type": "DT_FLOAT"}}}, {"name": "PartitionedCall/transpose_4", "op": "Transpose", "input": ["PartitionedCall/Pad_1", "PartitionedCall/transpose_4/perm"], "attr": {"Tperm": {"type": "DT_INT32"}, "T": {"type": "DT_FLOAT"}}}, {"name": "PartitionedCall/convolution_1", "op": "Conv2D", "input": ["PartitionedCall/transpose_4", "PartitionedCall/split_2"], "device": "/device:CPU:0", "attr": {"dilations": {"list": {"i": ["1", "1", "1", "1"]}}, "T": {"type": "DT_FLOAT"}, "strides": {"list": {"i": ["1", "1", "1", "1"]}}, "data_format": {"s": "TkhXQw=="}, "explicit_paddings": {"list": {}}, "use_cudnn_on_gpu": {"b": true}, "padding": {"s": "VkFMSUQ="}}}, {"name": "PartitionedCall/Add_1", "op": "Add", "input": ["PartitionedCall/convolution_1", "unknown_6"], "attr": {"T": {"type": "DT_FLOAT"}}}, {"name": "PartitionedCall/transpose_5", "op": "Transpose", "input": ["PartitionedCall/Add_1", "PartitionedCall/transpose_5/perm"], "attr": {"Tperm": {"type": "DT_INT32"}, "T": {"type": "DT_FLOAT"}}}, {"name": "PartitionedCall/onnx_tf_prefix_Relu_4", "op": "Relu", "input": ["PartitionedCall/transpose_5"], "attr": {"T": {"type": "DT_FLOAT"}}}, {"name": "PartitionedCall/onnx_tf_prefix_BatchNormalization_5/mul_1", "op": "Mul", "input": ["PartitionedCall/onnx_tf_prefix_Relu_4", "PartitionedCall/onnx_tf_prefix_BatchNormalization_5/mul"], "attr": {"T": {"type": "DT_FLOAT"}}}, {"name": "PartitionedCall/onnx_tf_prefix_BatchNormalization_5/add_1", "op": "AddV2", "input": ["PartitionedCall/onnx_tf_prefix_BatchNormalization_5/mul_1", "PartitionedCall/onnx_tf_prefix_BatchNormalization_5/sub"], "attr": {"T": {"type": "DT_FLOAT"}}}, {"name": "PartitionedCall/cond/PartitionedCall/onnx_tf_prefix_BatchNormalization_5/add_1/_138", "op": "Switch", "input": ["PartitionedCall/onnx_tf_prefix_BatchNormalization_5/add_1", "PartitionedCall/All"], "attr": {"T": {"type": "DT_FLOAT"}}}, {"name": "PartitionedCall/cond/else/_133/Slice", "op": "Slice", "input": ["PartitionedCall/cond/PartitionedCall/onnx_tf_prefix_BatchNormalization_5/add_1/_138", "PartitionedCall/cond/else/_133/Neg", "PartitionedCall/cond/else/_133/ArithmeticOptimizer/AddOpsRewrite_sub"], "attr": {"T": {"type": "DT_FLOAT"}, "Index": {"type": "DT_INT32"}}}, {"name": "PartitionedCall/cond/output/_139", "op": "Merge", "input": ["PartitionedCall/cond/PartitionedCall/onnx_tf_prefix_BatchNormalization_5/add_1/_138:1", "PartitionedCall/cond/else/_133/Slice"], "attr": {"T": {"type": "DT_FLOAT"}, "N": {"i": "2"}}}, {"name": "PartitionedCall/transpose_6", "op": "Transpose", "input": ["PartitionedCall/cond/output/_139", "PartitionedCall/transpose_6/perm"], "attr": {"Tperm": {"type": "DT_INT32"}, "T": {"type": "DT_FLOAT"}}}, {"name": "PartitionedCall/AvgPool", "op": "AvgPool", "input": ["PartitionedCall/transpose_6"], "attr": {"strides": {"list": {"i": ["1", "2", "2", "1"]}}, "data_format": {"s": "TkhXQw=="}, "ksize": {"list": {"i": ["1", "2", "2", "1"]}}, "padding": {"s": "VkFMSUQ="}, "T": {"type": "DT_FLOAT"}}}, {"name": "PartitionedCall/transpose_7", "op": "Transpose", "input": ["PartitionedCall/AvgPool", "PartitionedCall/transpose_7/perm"], "attr": {"T": {"type": "DT_FLOAT"}, "Tperm": {"type": "DT_INT32"}}}, {"name": "PartitionedCall/Pad_2", "op": "Pad", "input": ["PartitionedCall/transpose_7", "PartitionedCall/Const_8"], "attr": {"Tpaddings": {"type": "DT_INT32"}, "T": {"type": "DT_FLOAT"}}}, {"name": "PartitionedCall/transpose_9", "op": "Transpose", "input": ["PartitionedCall/Pad_2", "PartitionedCall/transpose_9/perm"], "attr": {"Tperm": {"type": "DT_INT32"}, "T": {"type": "DT_FLOAT"}}}, {"name": "PartitionedCall/convolution_2", "op": "Conv2D", "input": ["PartitionedCall/transpose_9", "PartitionedCall/split_4"], "device": "/device:CPU:0", "attr": {"dilations": {"list": {"i": ["1", "1", "1", "1"]}}, "T": {"type": "DT_FLOAT"}, "data_format": {"s": "TkhXQw=="}, "strides": {"list": {"i": ["1", "1", "1", "1"]}}, "explicit_paddings": {"list": {}}, "use_cudnn_on_gpu": {"b": true}, "padding": {"s": "VkFMSUQ="}}}, {"name": "PartitionedCall/Add_2", "op": "Add", "input": ["PartitionedCall/convolution_2", "unknown_12"], "attr": {"T": {"type": "DT_FLOAT"}}}, {"name": "PartitionedCall/transpose_10", "op": "Transpose", "input": ["PartitionedCall/Add_2", "PartitionedCall/transpose_10/perm"], "attr": {"T": {"type": "DT_FLOAT"}, "Tperm": {"type": "DT_INT32"}}}, {"name": "PartitionedCall/onnx_tf_prefix_Relu_9", "op": "Relu", "input": ["PartitionedCall/transpose_10"], "attr": {"T": {"type": "DT_FLOAT"}}}, {"name": "PartitionedCall/onnx_tf_prefix_BatchNormalization_10/mul_1", "op": "Mul", "input": ["PartitionedCall/onnx_tf_prefix_Relu_9", "PartitionedCall/onnx_tf_prefix_BatchNormalization_10/mul"], "attr": {"T": {"type": "DT_FLOAT"}}}, {"name": "PartitionedCall/onnx_tf_prefix_BatchNormalization_10/add_1", "op": "AddV2", "input": ["PartitionedCall/onnx_tf_prefix_BatchNormalization_10/mul_1", "PartitionedCall/onnx_tf_prefix_BatchNormalization_10/sub"], "attr": {"T": {"type": "DT_FLOAT"}}}, {"name": "PartitionedCall/Pad_3", "op": "Pad", "input": ["PartitionedCall/onnx_tf_prefix_BatchNormalization_10/add_1", "PartitionedCall/Const_11"], "attr": {"T": {"type": "DT_FLOAT"}, "Tpaddings": {"type": "DT_INT32"}}}, {"name": "PartitionedCall/transpose_12", "op": "Transpose", "input": ["PartitionedCall/Pad_3", "PartitionedCall/transpose_12/perm"], "attr": {"Tperm": {"type": "DT_INT32"}, "T": {"type": "DT_FLOAT"}}}, {"name": "PartitionedCall/convolution_3", "op": "Conv2D", "input": ["PartitionedCall/transpose_12", "PartitionedCall/split_6"], "device": "/device:CPU:0", "attr": {"padding": {"s": "VkFMSUQ="}, "dilations": {"list": {"i": ["1", "1", "1", "1"]}}, "T": {"type": "DT_FLOAT"}, "strides": {"list": {"i": ["1", "1", "1", "1"]}}, "data_format": {"s": "TkhXQw=="}, "use_cudnn_on_gpu": {"b": true}, "explicit_paddings": {"list": {}}}}, {"name": "PartitionedCall/Add_3", "op": "Add", "input": ["PartitionedCall/convolution_3", "unknown_18"], "attr": {"T": {"type": "DT_FLOAT"}}}, {"name": "PartitionedCall/transpose_13", "op": "Transpose", "input": ["PartitionedCall/Add_3", "PartitionedCall/transpose_13/perm"], "attr": {"Tperm": {"type": "DT_INT32"}, "T": {"type": "DT_FLOAT"}}}, {"name": "PartitionedCall/onnx_tf_prefix_Relu_12", "op": "Relu", "input": ["PartitionedCall/transpose_13"], "attr": {"T": {"type": "DT_FLOAT"}}}, {"name": "PartitionedCall/onnx_tf_prefix_BatchNormalization_13/mul_1", "op": "Mul", "input": ["PartitionedCall/onnx_tf_prefix_Relu_12", "PartitionedCall/onnx_tf_prefix_BatchNormalization_13/mul"], "attr": {"T": {"type": "DT_FLOAT"}}}, {"name": "PartitionedCall/onnx_tf_prefix_BatchNormalization_13/add_1", "op": "AddV2", "input": ["PartitionedCall/onnx_tf_prefix_BatchNormalization_13/mul_1", "PartitionedCall/onnx_tf_prefix_BatchNormalization_13/sub"], "attr": {"T": {"type": "DT_FLOAT"}}}, {"name": "PartitionedCall/onnx_tf_prefix_Shape_131", "op": "Shape", "input": ["PartitionedCall/onnx_tf_prefix_BatchNormalization_13/add_1"], "attr": {"out_type": {"type": "DT_INT64"}, "T": {"type": "DT_FLOAT"}}}, {"name": "PartitionedCall/onnx_tf_prefix_Shape_128", "op": "Shape", "input": ["PartitionedCall/onnx_tf_prefix_BatchNormalization_13/add_1"], "attr": {"out_type": {"type": "DT_INT64"}, "T": {"type": "DT_FLOAT"}}}, {"name": "PartitionedCall/cond_1/PartitionedCall/onnx_tf_prefix_BatchNormalization_13/add_1/_147", "op": "Switch", "input": ["PartitionedCall/onnx_tf_prefix_BatchNormalization_13/add_1", "PartitionedCall/All_1"], "attr": {"T": {"type": "DT_FLOAT"}}}, {"name": "PartitionedCall/Shape_26", "op": "Shape", "input": ["PartitionedCall/onnx_tf_prefix_BatchNormalization_13/add_1"], "attr": {"T": {"type": "DT_FLOAT"}, "out_type": {"type": "DT_INT64"}}}, {"name": "PartitionedCall/onnx_tf_prefix_Gather_133", "op": "GatherV2", "input": ["PartitionedCall/onnx_tf_prefix_Shape_131", "PartitionedCall/onnx_tf_prefix_Constant_132", "PartitionedCall/onnx_tf_prefix_Gather_133/axis"], "attr": {"Taxis": {"type": "DT_INT32"}, "batch_dims": {"i": "0"}, "Tindices": {"type": "DT_INT64"}, "Tparams": {"type": "DT_INT64"}}}, {"name": "PartitionedCall/onnx_tf_prefix_Gather_130", "op": "GatherV2", "input": ["PartitionedCall/onnx_tf_prefix_Shape_128", "PartitionedCall/onnx_tf_prefix_Constant_129", "PartitionedCall/onnx_tf_prefix_Gather_130/axis"], "attr": {"Taxis": {"type": "DT_INT32"}, "batch_dims": {"i": "0"}, "Tindices": {"type": "DT_INT64"}, "Tparams": {"type": "DT_INT64"}}}, {"name": "PartitionedCall/cond_1/else/_142/Shape", "op": "Shape", "input": ["PartitionedCall/cond_1/PartitionedCall/onnx_tf_prefix_BatchNormalization_13/add_1/_147", "^PartitionedCall/cond_1/pivot_f/_144"], "attr": {"T": {"type": "DT_FLOAT"}, "out_type": {"type": "DT_INT32"}}}, {"name": "PartitionedCall/GatherNd_4", "op": "GatherNd", "input": ["PartitionedCall/Shape_26", "PartitionedCall/ExpandDims_4"], "attr": {"Tindices": {"type": "DT_INT64"}, "Tparams": {"type": "DT_INT64"}}}, {"name": "PartitionedCall/cond_1/else/_142/ArithmeticOptimizer/AddOpsRewrite_sub", "op": "AddN", "input": ["PartitionedCall/cond_1/else/_142/Shape", "PartitionedCall/cond_1/else/_142/GatherV2_1", "PartitionedCall/cond_1/else/_142/GatherV2"], "attr": {"N": {"i": "3"}, "_grappler_ArithmeticOptimizer_AddOpsRewriteStage": {"b": true}, "T": {"type": "DT_INT32"}}}, {"name": "PartitionedCall/cond_1/else/_142/Slice", "op": "Slice", "input": ["PartitionedCall/cond_1/PartitionedCall/onnx_tf_prefix_BatchNormalization_13/add_1/_147", "PartitionedCall/cond_1/else/_142/Neg", "PartitionedCall/cond_1/else/_142/ArithmeticOptimizer/AddOpsRewrite_sub"], "attr": {"T": {"type": "DT_FLOAT"}, "Index": {"type": "DT_INT32"}}}, {"name": "PartitionedCall/cond_1/output/_148", "op": "Merge", "input": ["PartitionedCall/cond_1/PartitionedCall/onnx_tf_prefix_BatchNormalization_13/add_1/_147:1", "PartitionedCall/cond_1/else/_142/Slice"], "attr": {"N": {"i": "2"}, "T": {"type": "DT_FLOAT"}}}, {"name": "PartitionedCall/transpose_14", "op": "Transpose", "input": ["PartitionedCall/cond_1/output/_148", "PartitionedCall/transpose_14/perm"], "attr": {"Tperm": {"type": "DT_INT32"}, "T": {"type": "DT_FLOAT"}}}, {"name": "PartitionedCall/AvgPool_1", "op": "AvgPool", "input": ["PartitionedCall/transpose_14"], "attr": {"strides": {"list": {"i": ["1", "2", "2", "1"]}}, "data_format": {"s": "TkhXQw=="}, "ksize": {"list": {"i": ["1", "2", "2", "1"]}}, "padding": {"s": "VkFMSUQ="}, "T": {"type": "DT_FLOAT"}}}, {"name": "PartitionedCall/transpose_15", "op": "Transpose", "input": ["PartitionedCall/AvgPool_1", "PartitionedCall/transpose_15/perm"], "attr": {"Tperm": {"type": "DT_INT32"}, "T": {"type": "DT_FLOAT"}}}, {"name": "PartitionedCall/Pad_4", "op": "Pad", "input": ["PartitionedCall/transpose_15", "PartitionedCall/Const_16"], "attr": {"Tpaddings": {"type": "DT_INT32"}, "T": {"type": "DT_FLOAT"}}}, {"name": "PartitionedCall/transpose_17", "op": "Transpose", "input": ["PartitionedCall/Pad_4", "PartitionedCall/transpose_17/perm"], "attr": {"Tperm": {"type": "DT_INT32"}, "T": {"type": "DT_FLOAT"}}}, {"name": "PartitionedCall/convolution_4", "op": "Conv2D", "input": ["PartitionedCall/transpose_17", "PartitionedCall/split_8"], "device": "/device:CPU:0", "attr": {"dilations": {"list": {"i": ["1", "1", "1", "1"]}}, "T": {"type": "DT_FLOAT"}, "strides": {"list": {"i": ["1", "1", "1", "1"]}}, "data_format": {"s": "TkhXQw=="}, "explicit_paddings": {"list": {}}, "use_cudnn_on_gpu": {"b": true}, "padding": {"s": "VkFMSUQ="}}}, {"name": "PartitionedCall/Add_4", "op": "Add", "input": ["PartitionedCall/convolution_4", "unknown_24"], "attr": {"T": {"type": "DT_FLOAT"}}}, {"name": "PartitionedCall/transpose_18", "op": "Transpose", "input": ["PartitionedCall/Add_4", "PartitionedCall/transpose_18/perm"], "attr": {"Tperm": {"type": "DT_INT32"}, "T": {"type": "DT_FLOAT"}}}, {"name": "PartitionedCall/onnx_tf_prefix_Relu_17", "op": "Relu", "input": ["PartitionedCall/transpose_18"], "attr": {"T": {"type": "DT_FLOAT"}}}, {"name": "PartitionedCall/onnx_tf_prefix_BatchNormalization_18/mul_1", "op": "Mul", "input": ["PartitionedCall/onnx_tf_prefix_Relu_17", "PartitionedCall/onnx_tf_prefix_BatchNormalization_18/mul"], "attr": {"T": {"type": "DT_FLOAT"}}}, {"name": "PartitionedCall/onnx_tf_prefix_BatchNormalization_18/add_1", "op": "AddV2", "input": ["PartitionedCall/onnx_tf_prefix_BatchNormalization_18/mul_1", "PartitionedCall/onnx_tf_prefix_BatchNormalization_18/sub"], "attr": {"T": {"type": "DT_FLOAT"}}}, {"name": "PartitionedCall/Pad_5", "op": "Pad", "input": ["PartitionedCall/onnx_tf_prefix_BatchNormalization_18/add_1", "PartitionedCall/Const_19"], "attr": {"Tpaddings": {"type": "DT_INT32"}, "T": {"type": "DT_FLOAT"}}}, {"name": "PartitionedCall/transpose_20", "op": "Transpose", "input": ["PartitionedCall/Pad_5", "PartitionedCall/transpose_20/perm"], "attr": {"T": {"type": "DT_FLOAT"}, "Tperm": {"type": "DT_INT32"}}}, {"name": "PartitionedCall/convolution_5", "op": "Conv2D", "input": ["PartitionedCall/transpose_20", "PartitionedCall/split_10"], "device": "/device:CPU:0", "attr": {"dilations": {"list": {"i": ["1", "1", "1", "1"]}}, "T": {"type": "DT_FLOAT"}, "data_format": {"s": "TkhXQw=="}, "strides": {"list": {"i": ["1", "1", "1", "1"]}}, "use_cudnn_on_gpu": {"b": true}, "explicit_paddings": {"list": {}}, "padding": {"s": "VkFMSUQ="}}}, {"name": "PartitionedCall/Add_5", "op": "Add", "input": ["PartitionedCall/convolution_5", "unknown_30"], "attr": {"T": {"type": "DT_FLOAT"}}}, {"name": "PartitionedCall/transpose_21", "op": "Transpose", "input": ["PartitionedCall/Add_5", "PartitionedCall/transpose_21/perm"], "attr": {"Tperm": {"type": "DT_INT32"}, "T": {"type": "DT_FLOAT"}}}, {"name": "PartitionedCall/onnx_tf_prefix_Relu_20", "op": "Relu", "input": ["PartitionedCall/transpose_21"], "attr": {"T": {"type": "DT_FLOAT"}}}, {"name": "PartitionedCall/onnx_tf_prefix_BatchNormalization_21/mul_1", "op": "Mul", "input": ["PartitionedCall/onnx_tf_prefix_Relu_20", "PartitionedCall/onnx_tf_prefix_BatchNormalization_21/mul"], "attr": {"T": {"type": "DT_FLOAT"}}}, {"name": "PartitionedCall/onnx_tf_prefix_BatchNormalization_21/add_1", "op": "AddV2", "input": ["PartitionedCall/onnx_tf_prefix_BatchNormalization_21/mul_1", "PartitionedCall/onnx_tf_prefix_BatchNormalization_21/sub"], "attr": {"T": {"type": "DT_FLOAT"}}}, {"name": "PartitionedCall/onnx_tf_prefix_Shape_90", "op": "Shape", "input": ["PartitionedCall/onnx_tf_prefix_BatchNormalization_21/add_1"], "attr": {"out_type": {"type": "DT_INT64"}, "T": {"type": "DT_FLOAT"}}}, {"name": "PartitionedCall/onnx_tf_prefix_Shape_87", "op": "Shape", "input": ["PartitionedCall/onnx_tf_prefix_BatchNormalization_21/add_1"], "attr": {"T": {"type": "DT_FLOAT"}, "out_type": {"type": "DT_INT64"}}}, {"name": "PartitionedCall/cond_2/PartitionedCall/onnx_tf_prefix_BatchNormalization_21/add_1/_156", "op": "Switch", "input": ["PartitionedCall/onnx_tf_prefix_BatchNormalization_21/add_1", "PartitionedCall/All_2"], "attr": {"T": {"type": "DT_FLOAT"}}}, {"name": "PartitionedCall/Shape_20", "op": "Shape", "input": ["PartitionedCall/onnx_tf_prefix_BatchNormalization_21/add_1"], "attr": {"out_type": {"type": "DT_INT64"}, "T": {"type": "DT_FLOAT"}}}, {"name": "PartitionedCall/onnx_tf_prefix_Gather_92", "op": "GatherV2", "input": ["PartitionedCall/onnx_tf_prefix_Shape_90", "PartitionedCall/onnx_tf_prefix_Constant_91", "PartitionedCall/onnx_tf_prefix_Gather_92/axis"], "attr": {"Taxis": {"type": "DT_INT32"}, "batch_dims": {"i": "0"}, "Tindices": {"type": "DT_INT64"}, "Tparams": {"type": "DT_INT64"}}}, {"name": "PartitionedCall/onnx_tf_prefix_Gather_89", "op": "GatherV2", "input": ["PartitionedCall/onnx_tf_prefix_Shape_87", "PartitionedCall/onnx_tf_prefix_Constant_88", "PartitionedCall/onnx_tf_prefix_Gather_89/axis"], "attr": {"Taxis": {"type": "DT_INT32"}, "batch_dims": {"i": "0"}, "Tindices": {"type": "DT_INT64"}, "Tparams": {"type": "DT_INT64"}}}, {"name": "PartitionedCall/cond_2/else/_151/Shape", "op": "Shape", "input": ["PartitionedCall/cond_2/PartitionedCall/onnx_tf_prefix_BatchNormalization_21/add_1/_156", "^PartitionedCall/cond_2/pivot_f/_153"], "attr": {"T": {"type": "DT_FLOAT"}, "out_type": {"type": "DT_INT32"}}}, {"name": "PartitionedCall/GatherNd_2", "op": "GatherNd", "input": ["PartitionedCall/Shape_20", "PartitionedCall/ExpandDims_2"], "attr": {"Tindices": {"type": "DT_INT64"}, "Tparams": {"type": "DT_INT64"}}}, {"name": "PartitionedCall/cond_2/else/_151/ArithmeticOptimizer/AddOpsRewrite_sub", "op": "AddN", "input": ["PartitionedCall/cond_2/else/_151/Shape", "PartitionedCall/cond_2/else/_151/GatherV2_1", "PartitionedCall/cond_2/else/_151/GatherV2"], "attr": {"N": {"i": "3"}, "_grappler_ArithmeticOptimizer_AddOpsRewriteStage": {"b": true}, "T": {"type": "DT_INT32"}}}, {"name": "PartitionedCall/cond_2/else/_151/Slice", "op": "Slice", "input": ["PartitionedCall/cond_2/PartitionedCall/onnx_tf_prefix_BatchNormalization_21/add_1/_156", "PartitionedCall/cond_2/else/_151/Neg", "PartitionedCall/cond_2/else/_151/ArithmeticOptimizer/AddOpsRewrite_sub"], "attr": {"T": {"type": "DT_FLOAT"}, "Index": {"type": "DT_INT32"}}}, {"name": "PartitionedCall/cond_2/output/_157", "op": "Merge", "input": ["PartitionedCall/cond_2/PartitionedCall/onnx_tf_prefix_BatchNormalization_21/add_1/_156:1", "PartitionedCall/cond_2/else/_151/Slice"], "attr": {"T": {"type": "DT_FLOAT"}, "N": {"i": "2"}}}, {"name": "PartitionedCall/transpose_22", "op": "Transpose", "input": ["PartitionedCall/cond_2/output/_157", "PartitionedCall/transpose_22/perm"], "attr": {"T": {"type": "DT_FLOAT"}, "Tperm": {"type": "DT_INT32"}}}, {"name": "PartitionedCall/AvgPool_2", "op": "AvgPool", "input": ["PartitionedCall/transpose_22"], "attr": {"ksize": {"list": {"i": ["1", "2", "2", "1"]}}, "padding": {"s": "VkFMSUQ="}, "T": {"type": "DT_FLOAT"}, "strides": {"list": {"i": ["1", "2", "2", "1"]}}, "data_format": {"s": "TkhXQw=="}}}, {"name": "PartitionedCall/transpose_23", "op": "Transpose", "input": ["PartitionedCall/AvgPool_2", "PartitionedCall/transpose_23/perm"], "attr": {"T": {"type": "DT_FLOAT"}, "Tperm": {"type": "DT_INT32"}}}, {"name": "PartitionedCall/Pad_6", "op": "Pad", "input": ["PartitionedCall/transpose_23", "PartitionedCall/Const_24"], "attr": {"T": {"type": "DT_FLOAT"}, "Tpaddings": {"type": "DT_INT32"}}}, {"name": "PartitionedCall/transpose_25", "op": "Transpose", "input": ["PartitionedCall/Pad_6", "PartitionedCall/transpose_25/perm"], "attr": {"T": {"type": "DT_FLOAT"}, "Tperm": {"type": "DT_INT32"}}}, {"name": "PartitionedCall/convolution_6", "op": "Conv2D", "input": ["PartitionedCall/transpose_25", "PartitionedCall/split_12"], "device": "/device:CPU:0", "attr": {"dilations": {"list": {"i": ["1", "1", "1", "1"]}}, "T": {"type": "DT_FLOAT"}, "data_format": {"s": "TkhXQw=="}, "strides": {"list": {"i": ["1", "1", "1", "1"]}}, "explicit_paddings": {"list": {}}, "use_cudnn_on_gpu": {"b": true}, "padding": {"s": "VkFMSUQ="}}}, {"name": "PartitionedCall/Add_6", "op": "Add", "input": ["PartitionedCall/convolution_6", "unknown_36"], "attr": {"T": {"type": "DT_FLOAT"}}}, {"name": "PartitionedCall/transpose_26", "op": "Transpose", "input": ["PartitionedCall/Add_6", "PartitionedCall/transpose_26/perm"], "attr": {"T": {"type": "DT_FLOAT"}, "Tperm": {"type": "DT_INT32"}}}, {"name": "PartitionedCall/onnx_tf_prefix_Relu_25", "op": "Relu", "input": ["PartitionedCall/transpose_26"], "attr": {"T": {"type": "DT_FLOAT"}}}, {"name": "PartitionedCall/onnx_tf_prefix_BatchNormalization_26/mul_1", "op": "Mul", "input": ["PartitionedCall/onnx_tf_prefix_Relu_25", "PartitionedCall/onnx_tf_prefix_BatchNormalization_26/mul"], "attr": {"T": {"type": "DT_FLOAT"}}}, {"name": "PartitionedCall/onnx_tf_prefix_BatchNormalization_26/add_1", "op": "AddV2", "input": ["PartitionedCall/onnx_tf_prefix_BatchNormalization_26/mul_1", "PartitionedCall/onnx_tf_prefix_BatchNormalization_26/sub"], "attr": {"T": {"type": "DT_FLOAT"}}}, {"name": "PartitionedCall/Pad_7", "op": "Pad", "input": ["PartitionedCall/onnx_tf_prefix_BatchNormalization_26/add_1", "PartitionedCall/Const_27"], "attr": {"T": {"type": "DT_FLOAT"}, "Tpaddings": {"type": "DT_INT32"}}}, {"name": "PartitionedCall/transpose_28", "op": "Transpose", "input": ["PartitionedCall/Pad_7", "PartitionedCall/transpose_28/perm"], "attr": {"Tperm": {"type": "DT_INT32"}, "T": {"type": "DT_FLOAT"}}}, {"name": "PartitionedCall/convolution_7", "op": "Conv2D", "input": ["PartitionedCall/transpose_28", "PartitionedCall/split_14"], "device": "/device:CPU:0", "attr": {"dilations": {"list": {"i": ["1", "1", "1", "1"]}}, "T": {"type": "DT_FLOAT"}, "data_format": {"s": "TkhXQw=="}, "strides": {"list": {"i": ["1", "1", "1", "1"]}}, "explicit_paddings": {"list": {}}, "use_cudnn_on_gpu": {"b": true}, "padding": {"s": "VkFMSUQ="}}}, {"name": "PartitionedCall/Add_7", "op": "Add", "input": ["PartitionedCall/convolution_7", "unknown_42"], "attr": {"T": {"type": "DT_FLOAT"}}}, {"name": "PartitionedCall/transpose_29", "op": "Transpose", "input": ["PartitionedCall/Add_7", "PartitionedCall/transpose_29/perm"], "attr": {"T": {"type": "DT_FLOAT"}, "Tperm": {"type": "DT_INT32"}}}, {"name": "PartitionedCall/onnx_tf_prefix_Relu_28", "op": "Relu", "input": ["PartitionedCall/transpose_29"], "attr": {"T": {"type": "DT_FLOAT"}}}, {"name": "PartitionedCall/onnx_tf_prefix_BatchNormalization_29/mul_1", "op": "Mul", "input": ["PartitionedCall/onnx_tf_prefix_Relu_28", "PartitionedCall/onnx_tf_prefix_BatchNormalization_29/mul"], "attr": {"T": {"type": "DT_FLOAT"}}}, {"name": "PartitionedCall/onnx_tf_prefix_BatchNormalization_29/add_1", "op": "AddV2", "input": ["PartitionedCall/onnx_tf_prefix_BatchNormalization_29/mul_1", "PartitionedCall/onnx_tf_prefix_BatchNormalization_29/sub"], "attr": {"T": {"type": "DT_FLOAT"}}}, {"name": "PartitionedCall/onnx_tf_prefix_Shape_49", "op": "Shape", "input": ["PartitionedCall/onnx_tf_prefix_BatchNormalization_29/add_1"], "attr": {"out_type": {"type": "DT_INT64"}, "T": {"type": "DT_FLOAT"}}}, {"name": "PartitionedCall/onnx_tf_prefix_Shape_46", "op": "Shape", "input": ["PartitionedCall/onnx_tf_prefix_BatchNormalization_29/add_1"], "attr": {"out_type": {"type": "DT_INT64"}, "T": {"type": "DT_FLOAT"}}}, {"name": "PartitionedCall/cond_3/PartitionedCall/onnx_tf_prefix_BatchNormalization_29/add_1/_165", "op": "Switch", "input": ["PartitionedCall/onnx_tf_prefix_BatchNormalization_29/add_1", "PartitionedCall/All_3"], "attr": {"T": {"type": "DT_FLOAT"}}}, {"name": "PartitionedCall/Shape_14", "op": "Shape", "input": ["PartitionedCall/onnx_tf_prefix_BatchNormalization_29/add_1"], "attr": {"T": {"type": "DT_FLOAT"}, "out_type": {"type": "DT_INT64"}}}, {"name": "PartitionedCall/onnx_tf_prefix_Gather_51", "op": "GatherV2", "input": ["PartitionedCall/onnx_tf_prefix_Shape_49", "PartitionedCall/onnx_tf_prefix_Constant_50", "PartitionedCall/onnx_tf_prefix_Gather_51/axis"], "attr": {"Taxis": {"type": "DT_INT32"}, "batch_dims": {"i": "0"}, "Tindices": {"type": "DT_INT64"}, "Tparams": {"type": "DT_INT64"}}}, {"name": "PartitionedCall/onnx_tf_prefix_Gather_48", "op": "GatherV2", "input": ["PartitionedCall/onnx_tf_prefix_Shape_46", "PartitionedCall/onnx_tf_prefix_Constant_47", "PartitionedCall/onnx_tf_prefix_Gather_48/axis"], "attr": {"Taxis": {"type": "DT_INT32"}, "batch_dims": {"i": "0"}, "Tindices": {"type": "DT_INT64"}, "Tparams": {"type": "DT_INT64"}}}, {"name": "PartitionedCall/cond_3/else/_160/Shape", "op": "Shape", "input": ["PartitionedCall/cond_3/PartitionedCall/onnx_tf_prefix_BatchNormalization_29/add_1/_165", "^PartitionedCall/cond_3/pivot_f/_162"], "attr": {"T": {"type": "DT_FLOAT"}, "out_type": {"type": "DT_INT32"}}}, {"name": "PartitionedCall/GatherNd", "op": "GatherNd", "input": ["PartitionedCall/Shape_14", "PartitionedCall/ExpandDims"], "attr": {"Tindices": {"type": "DT_INT64"}, "Tparams": {"type": "DT_INT64"}}}, {"name": "PartitionedCall/cond_3/else/_160/ArithmeticOptimizer/AddOpsRewrite_sub", "op": "AddN", "input": ["PartitionedCall/cond_3/else/_160/Shape", "PartitionedCall/cond_3/else/_160/GatherV2_1", "PartitionedCall/cond_3/else/_160/GatherV2"], "attr": {"N": {"i": "3"}, "_grappler_ArithmeticOptimizer_AddOpsRewriteStage": {"b": true}, "T": {"type": "DT_INT32"}}}, {"name": "PartitionedCall/cond_3/else/_160/Slice", "op": "Slice", "input": ["PartitionedCall/cond_3/PartitionedCall/onnx_tf_prefix_BatchNormalization_29/add_1/_165", "PartitionedCall/cond_3/else/_160/Neg", "PartitionedCall/cond_3/else/_160/ArithmeticOptimizer/AddOpsRewrite_sub"], "attr": {"T": {"type": "DT_FLOAT"}, "Index": {"type": "DT_INT32"}}}, {"name": "PartitionedCall/cond_3/output/_166", "op": "Merge", "input": ["PartitionedCall/cond_3/PartitionedCall/onnx_tf_prefix_BatchNormalization_29/add_1/_165:1", "PartitionedCall/cond_3/else/_160/Slice"], "attr": {"T": {"type": "DT_FLOAT"}, "N": {"i": "2"}}}, {"name": "PartitionedCall/transpose_30", "op": "Transpose", "input": ["PartitionedCall/cond_3/output/_166", "PartitionedCall/transpose_30/perm"], "attr": {"T": {"type": "DT_FLOAT"}, "Tperm": {"type": "DT_INT32"}}}, {"name": "PartitionedCall/AvgPool_3", "op": "AvgPool", "input": ["PartitionedCall/transpose_30"], "attr": {"ksize": {"list": {"i": ["1", "2", "2", "1"]}}, "padding": {"s": "VkFMSUQ="}, "T": {"type": "DT_FLOAT"}, "strides": {"list": {"i": ["1", "2", "2", "1"]}}, "data_format": {"s": "TkhXQw=="}}}, {"name": "PartitionedCall/transpose_31", "op": "Transpose", "input": ["PartitionedCall/AvgPool_3", "PartitionedCall/transpose_31/perm"], "attr": {"T": {"type": "DT_FLOAT"}, "Tperm": {"type": "DT_INT32"}}}, {"name": "PartitionedCall/Pad_8", "op": "Pad", "input": ["PartitionedCall/transpose_31", "PartitionedCall/Const_32"], "attr": {"Tpaddings": {"type": "DT_INT32"}, "T": {"type": "DT_FLOAT"}}}, {"name": "PartitionedCall/transpose_33", "op": "Transpose", "input": ["PartitionedCall/Pad_8", "PartitionedCall/transpose_33/perm"], "attr": {"Tperm": {"type": "DT_INT32"}, "T": {"type": "DT_FLOAT"}}}, {"name": "PartitionedCall/convolution_8", "op": "Conv2D", "input": ["PartitionedCall/transpose_33", "PartitionedCall/split_16"], "device": "/device:CPU:0", "attr": {"data_format": {"s": "TkhXQw=="}, "strides": {"list": {"i": ["1", "1", "1", "1"]}}, "use_cudnn_on_gpu": {"b": true}, "explicit_paddings": {"list": {}}, "padding": {"s": "VkFMSUQ="}, "dilations": {"list": {"i": ["1", "1", "1", "1"]}}, "T": {"type": "DT_FLOAT"}}}, {"name": "PartitionedCall/Add_8", "op": "Add", "input": ["PartitionedCall/convolution_8", "unknown_48"], "attr": {"T": {"type": "DT_FLOAT"}}}, {"name": "PartitionedCall/transpose_34", "op": "Transpose", "input": ["PartitionedCall/Add_8", "PartitionedCall/transpose_34/perm"], "attr": {"T": {"type": "DT_FLOAT"}, "Tperm": {"type": "DT_INT32"}}}, {"name": "PartitionedCall/onnx_tf_prefix_Relu_33", "op": "Relu", "input": ["PartitionedCall/transpose_34"], "attr": {"T": {"type": "DT_FLOAT"}}}, {"name": "PartitionedCall/onnx_tf_prefix_BatchNormalization_34/mul_1", "op": "Mul", "input": ["PartitionedCall/onnx_tf_prefix_Relu_33", "PartitionedCall/onnx_tf_prefix_BatchNormalization_34/mul"], "attr": {"T": {"type": "DT_FLOAT"}}}, {"name": "PartitionedCall/onnx_tf_prefix_BatchNormalization_34/add_1", "op": "AddV2", "input": ["PartitionedCall/onnx_tf_prefix_BatchNormalization_34/mul_1", "PartitionedCall/onnx_tf_prefix_BatchNormalization_34/sub"], "attr": {"T": {"type": "DT_FLOAT"}}}, {"name": "PartitionedCall/Pad_9", "op": "Pad", "input": ["PartitionedCall/onnx_tf_prefix_BatchNormalization_34/add_1", "PartitionedCall/Const_35"], "attr": {"Tpaddings": {"type": "DT_INT32"}, "T": {"type": "DT_FLOAT"}}}, {"name": "PartitionedCall/transpose_36", "op": "Transpose", "input": ["PartitionedCall/Pad_9", "PartitionedCall/transpose_36/perm"], "attr": {"Tperm": {"type": "DT_INT32"}, "T": {"type": "DT_FLOAT"}}}, {"name": "PartitionedCall/convolution_9", "op": "Conv2D", "input": ["PartitionedCall/transpose_36", "PartitionedCall/split_18"], "device": "/device:CPU:0", "attr": {"padding": {"s": "VkFMSUQ="}, "dilations": {"list": {"i": ["1", "1", "1", "1"]}}, "T": {"type": "DT_FLOAT"}, "data_format": {"s": "TkhXQw=="}, "strides": {"list": {"i": ["1", "1", "1", "1"]}}, "explicit_paddings": {"list": {}}, "use_cudnn_on_gpu": {"b": true}}}, {"name": "PartitionedCall/Add_9", "op": "Add", "input": ["PartitionedCall/convolution_9", "unknown_54"], "attr": {"T": {"type": "DT_FLOAT"}}}, {"name": "PartitionedCall/transpose_37", "op": "Transpose", "input": ["PartitionedCall/Add_9", "PartitionedCall/transpose_37/perm"], "attr": {"Tperm": {"type": "DT_INT32"}, "T": {"type": "DT_FLOAT"}}}, {"name": "PartitionedCall/onnx_tf_prefix_Relu_36", "op": "Relu", "input": ["PartitionedCall/transpose_37"], "attr": {"T": {"type": "DT_FLOAT"}}}, {"name": "PartitionedCall/onnx_tf_prefix_BatchNormalization_37/mul_1", "op": "Mul", "input": ["PartitionedCall/onnx_tf_prefix_Relu_36", "PartitionedCall/onnx_tf_prefix_BatchNormalization_37/mul"], "attr": {"T": {"type": "DT_FLOAT"}}}, {"name": "PartitionedCall/onnx_tf_prefix_BatchNormalization_37/add_1", "op": "AddV2", "input": ["PartitionedCall/onnx_tf_prefix_BatchNormalization_37/mul_1", "PartitionedCall/onnx_tf_prefix_BatchNormalization_37/sub"], "attr": {"T": {"type": "DT_FLOAT"}}}, {"name": "PartitionedCall/transpose_38", "op": "Transpose", "input": ["PartitionedCall/onnx_tf_prefix_BatchNormalization_37/add_1", "PartitionedCall/transpose_38/perm"], "attr": {"T": {"type": "DT_FLOAT"}, "Tperm": {"type": "DT_INT32"}}}, {"name": "PartitionedCall/Shape_12", "op": "Shape", "input": ["PartitionedCall/onnx_tf_prefix_BatchNormalization_37/add_1"], "attr": {"out_type": {"type": "DT_INT64"}, "T": {"type": "DT_FLOAT"}}}, {"name": "PartitionedCall/strided_slice_1", "op": "StridedSlice", "input": ["PartitionedCall/Shape_12", "PartitionedCall/strided_slice_1/stack", "PartitionedCall/strided_slice_1/stack_1", "PartitionedCall/strided_slice_1/stack_2"], "attr": {"T": {"type": "DT_INT64"}, "Index": {"type": "DT_INT32"}, "shrink_axis_mask": {"i": "0"}, "begin_mask": {"i": "0"}, "ellipsis_mask": {"i": "0"}, "new_axis_mask": {"i": "0"}, "end_mask": {"i": "1"}}}, {"name": "PartitionedCall/Cast", "op": "Cast", "input": ["PartitionedCall/strided_slice_1"], "attr": {"SrcT": {"type": "DT_INT64"}, "Truncate": {"b": false}, "DstT": {"type": "DT_FLOAT"}}}, {"name": "PartitionedCall/mul", "op": "Mul", "input": ["PartitionedCall/strided_slice", "PartitionedCall/Cast"], "attr": {"T": {"type": "DT_FLOAT"}}}, {"name": "PartitionedCall/Cast_1", "op": "Cast", "input": ["PartitionedCall/mul"], "attr": {"SrcT": {"type": "DT_FLOAT"}, "Truncate": {"b": false}, "DstT": {"type": "DT_INT32"}}}, {"name": "PartitionedCall/resize/ResizeBilinear", "op": "ResizeBilinear", "input": ["PartitionedCall/transpose_38", "PartitionedCall/Cast_1"], "attr": {"align_corners": {"b": false}, "half_pixel_centers": {"b": true}, "T": {"type": "DT_FLOAT"}}}, {"name": "PartitionedCall/convolution_10", "op": "Conv2D", "input": ["PartitionedCall/resize/ResizeBilinear", "PartitionedCall/split_20"], "device": "/device:CPU:0", "attr": {"dilations": {"list": {"i": ["1", "1", "1", "1"]}}, "T": {"type": "DT_FLOAT"}, "data_format": {"s": "TkhXQw=="}, "strides": {"list": {"i": ["1", "1", "1", "1"]}}, "explicit_paddings": {"list": {}}, "use_cudnn_on_gpu": {"b": true}, "padding": {"s": "VkFMSUQ="}}}, {"name": "PartitionedCall/Add_10", "op": "Add", "input": ["PartitionedCall/convolution_10", "unknown_61"], "attr": {"T": {"type": "DT_FLOAT"}}}, {"name": "PartitionedCall/transpose_42", "op": "Transpose", "input": ["PartitionedCall/Add_10", "PartitionedCall/transpose_42/perm"], "attr": {"T": {"type": "DT_FLOAT"}, "Tperm": {"type": "DT_INT32"}}}, {"name": "PartitionedCall/onnx_tf_prefix_Shape_43", "op": "Shape", "input": ["PartitionedCall/transpose_42"], "attr": {"out_type": {"type": "DT_INT64"}, "T": {"type": "DT_FLOAT"}}}, {"name": "PartitionedCall/onnx_tf_prefix_Shape_40", "op": "Shape", "input": ["PartitionedCall/transpose_42"], "attr": {"T": {"type": "DT_FLOAT"}, "out_type": {"type": "DT_INT64"}}}, {"name": "PartitionedCall/onnx_tf_prefix_Gather_45", "op": "GatherV2", "input": ["PartitionedCall/onnx_tf_prefix_Shape_43", "PartitionedCall/onnx_tf_prefix_Constant_44", "PartitionedCall/onnx_tf_prefix_Gather_45/axis"], "attr": {"Taxis": {"type": "DT_INT32"}, "batch_dims": {"i": "0"}, "Tindices": {"type": "DT_INT64"}, "Tparams": {"type": "DT_INT64"}}}, {"name": "PartitionedCall/onnx_tf_prefix_Gather_42", "op": "GatherV2", "input": ["PartitionedCall/onnx_tf_prefix_Shape_40", "PartitionedCall/onnx_tf_prefix_Constant_41", "PartitionedCall/onnx_tf_prefix_Gather_42/axis"], "attr": {"Taxis": {"type": "DT_INT32"}, "batch_dims": {"i": "0"}, "Tindices": {"type": "DT_INT64"}, "Tparams": {"type": "DT_INT64"}}}, {"name": "PartitionedCall/onnx_tf_prefix_Sub_57", "op": "Sub", "input": ["PartitionedCall/onnx_tf_prefix_Gather_51", "PartitionedCall/onnx_tf_prefix_Gather_45"], "attr": {"T": {"type": "DT_INT64"}}}, {"name": "PartitionedCall/onnx_tf_prefix_Sub_52", "op": "Sub", "input": ["PartitionedCall/onnx_tf_prefix_Gather_48", "PartitionedCall/onnx_tf_prefix_Gather_42"], "attr": {"T": {"type": "DT_INT64"}}}, {"name": "PartitionedCall/onnx_tf_prefix_Div_59/Cast", "op": "Cast", "input": ["PartitionedCall/onnx_tf_prefix_Sub_57"], "attr": {"SrcT": {"type": "DT_INT64"}, "Truncate": {"b": false}, "DstT": {"type": "DT_DOUBLE"}}}, {"name": "PartitionedCall/onnx_tf_prefix_Div_54/Cast", "op": "Cast", "input": ["PartitionedCall/onnx_tf_prefix_Sub_52"], "attr": {"Truncate": {"b": false}, "DstT": {"type": "DT_DOUBLE"}, "SrcT": {"type": "DT_INT64"}}}, {"name": "PartitionedCall/onnx_tf_prefix_Div_59", "op": "Mul", "input": ["PartitionedCall/onnx_tf_prefix_Div_59/Cast", "ConstantFolding/PartitionedCall/onnx_tf_prefix_Div_59_recip"], "attr": {"T": {"type": "DT_DOUBLE"}}}, {"name": "PartitionedCall/onnx_tf_prefix_Div_54", "op": "Mul", "input": ["PartitionedCall/onnx_tf_prefix_Div_54/Cast", "ConstantFolding/PartitionedCall/onnx_tf_prefix_Div_54_recip"], "attr": {"T": {"type": "DT_DOUBLE"}}}, {"name": "PartitionedCall/onnx_tf_prefix_Cast_60", "op": "Cast", "input": ["PartitionedCall/onnx_tf_prefix_Div_59"], "attr": {"SrcT": {"type": "DT_DOUBLE"}, "Truncate": {"b": false}, "DstT": {"type": "DT_INT64"}}}, {"name": "PartitionedCall/onnx_tf_prefix_Cast_55", "op": "Cast", "input": ["PartitionedCall/onnx_tf_prefix_Div_54"], "attr": {"SrcT": {"type": "DT_DOUBLE"}, "Truncate": {"b": false}, "DstT": {"type": "DT_INT64"}}}, {"name": "PartitionedCall/onnx_tf_prefix_Unsqueeze_68", "op": "ExpandDims", "input": ["PartitionedCall/onnx_tf_prefix_Cast_60", "PartitionedCall/onnx_tf_prefix_Unsqueeze_68/dim"], "attr": {"Tdim": {"type": "DT_INT32"}, "T": {"type": "DT_INT64"}}}, {"name": "PartitionedCall/onnx_tf_prefix_Add_63", "op": "Add", "input": ["PartitionedCall/onnx_tf_prefix_Cast_60", "PartitionedCall/onnx_tf_prefix_Gather_45"], "attr": {"T": {"type": "DT_INT64"}}}, {"name": "PartitionedCall/onnx_tf_prefix_Unsqueeze_64", "op": "ExpandDims", "input": ["PartitionedCall/onnx_tf_prefix_Cast_55", "PartitionedCall/onnx_tf_prefix_Unsqueeze_64/dim"], "attr": {"Tdim": {"type": "DT_INT32"}, "T": {"type": "DT_INT64"}}}, {"name": "PartitionedCall/onnx_tf_prefix_Add_62", "op": "Add", "input": ["PartitionedCall/onnx_tf_prefix_Cast_55", "PartitionedCall/onnx_tf_prefix_Gather_42"], "attr": {"T": {"type": "DT_INT64"}}}, {"name": "PartitionedCall/onnx_tf_prefix_Unsqueeze_69", "op": "ExpandDims", "input": ["PartitionedCall/onnx_tf_prefix_Add_63", "PartitionedCall/onnx_tf_prefix_Unsqueeze_69/dim"], "attr": {"Tdim": {"type": "DT_INT32"}, "T": {"type": "DT_INT64"}}}, {"name": "PartitionedCall/Minimum", "op": "Minimum", "input": ["PartitionedCall/onnx_tf_prefix_Unsqueeze_64", "PartitionedCall/GatherNd"], "attr": {"T": {"type": "DT_INT64"}}}, {"name": "PartitionedCall/onnx_tf_prefix_Unsqueeze_65", "op": "ExpandDims", "input": ["PartitionedCall/onnx_tf_prefix_Add_62", "PartitionedCall/onnx_tf_prefix_Unsqueeze_65/dim"], "attr": {"Tdim": {"type": "DT_INT32"}, "T": {"type": "DT_INT64"}}}, {"name": "PartitionedCall/Less_1", "op": "Less", "input": ["PartitionedCall/Minimum", "PartitionedCall/zeros_like_1"], "attr": {"T": {"type": "DT_INT64"}}}, {"name": "PartitionedCall/add_12", "op": "AddV2", "input": ["PartitionedCall/Minimum", "PartitionedCall/GatherNd"], "attr": {"T": {"type": "DT_INT64"}}}, {"name": "PartitionedCall/Minimum_1", "op": "Minimum", "input": ["PartitionedCall/onnx_tf_prefix_Unsqueeze_65", "PartitionedCall/GatherNd"], "attr": {"T": {"type": "DT_INT64"}}}, {"name": "PartitionedCall/SelectV2_1", "op": "SelectV2", "input": ["PartitionedCall/Less_1", "PartitionedCall/add_12", "PartitionedCall/Minimum"], "attr": {"T": {"type": "DT_INT64"}}}, {"name": "PartitionedCall/Less_2", "op": "Less", "input": ["PartitionedCall/Minimum_1", "PartitionedCall/zeros_like_2"], "attr": {"T": {"type": "DT_INT64"}}}, {"name": "PartitionedCall/add_13", "op": "AddV2", "input": ["PartitionedCall/Minimum_1", "PartitionedCall/GatherNd"], "attr": {"T": {"type": "DT_INT64"}}}, {"name": "PartitionedCall/SparseToDense", "op": "SparseToDense", "input": ["PartitionedCall/ExpandDims", "PartitionedCall/Cast_3", "PartitionedCall/SelectV2_1", "PartitionedCall/zeros_4"], "attr": {"Tindices": {"type": "DT_INT64"}, "T": {"type": "DT_INT64"}, "validate_indices": {"b": true}}}, {"name": "PartitionedCall/SelectV2_2", "op": "SelectV2", "input": ["PartitionedCall/Less_2", "PartitionedCall/add_13", "PartitionedCall/Minimum_1"], "attr": {"T": {"type": "DT_INT64"}}}, {"name": "PartitionedCall/SparseToDense_1", "op": "SparseToDense", "input": ["PartitionedCall/ExpandDims", "PartitionedCall/Cast_3", "PartitionedCall/SelectV2_2", "PartitionedCall/Const_40"], "attr": {"Tindices": {"type": "DT_INT64"}, "T": {"type": "DT_INT64"}, "validate_indices": {"b": true}}}, {"name": "PartitionedCall/Equal", "op": "Equal", "input": ["PartitionedCall/SparseToDense_1", "PartitionedCall/Const_41"], "attr": {"T": {"type": "DT_INT64"}, "incompatible_shape_error": {"b": true}}}, {"name": "PartitionedCall/SelectV2_3", "op": "SelectV2", "input": ["PartitionedCall/Equal", "PartitionedCall/Shape_14", "PartitionedCall/SparseToDense_1"], "attr": {"T": {"type": "DT_INT64"}}}, {"name": "PartitionedCall/onnx_tf_prefix_Slice_67", "op": "StridedSlice", "input": ["PartitionedCall/onnx_tf_prefix_BatchNormalization_29/add_1", "PartitionedCall/SparseToDense", "PartitionedCall/SelectV2_3", "PartitionedCall/SparseToDense_2"], "attr": {"T": {"type": "DT_FLOAT"}, "Index": {"type": "DT_INT64"}, "shrink_axis_mask": {"i": "0"}, "ellipsis_mask": {"i": "0"}, "begin_mask": {"i": "0"}, "new_axis_mask": {"i": "0"}, "end_mask": {"i": "0"}}}, {"name": "PartitionedCall/Shape_15", "op": "Shape", "input": ["PartitionedCall/onnx_tf_prefix_Slice_67"], "attr": {"out_type": {"type": "DT_INT64"}, "T": {"type": "DT_FLOAT"}}}, {"name": "PartitionedCall/GatherNd_1", "op": "GatherNd", "input": ["PartitionedCall/Shape_15", "PartitionedCall/ExpandDims_1"], "attr": {"Tindices": {"type": "DT_INT64"}, "Tparams": {"type": "DT_INT64"}}}, {"name": "PartitionedCall/Minimum_2", "op": "Minimum", "input": ["PartitionedCall/onnx_tf_prefix_Unsqueeze_68", "PartitionedCall/GatherNd_1"], "attr": {"T": {"type": "DT_INT64"}}}, {"name": "PartitionedCall/Minimum_3", "op": "Minimum", "input": ["PartitionedCall/onnx_tf_prefix_Unsqueeze_69", "PartitionedCall/GatherNd_1"], "attr": {"T": {"type": "DT_INT64"}}}, {"name": "PartitionedCall/Less_4", "op": "Less", "input": ["PartitionedCall/Minimum_2", "PartitionedCall/zeros_like_4"], "attr": {"T": {"type": "DT_INT64"}}}, {"name": "PartitionedCall/add_15", "op": "AddV2", "input": ["PartitionedCall/Minimum_2", "PartitionedCall/GatherNd_1"], "attr": {"T": {"type": "DT_INT64"}}}, {"name": "PartitionedCall/Less_5", "op": "Less", "input": ["PartitionedCall/Minimum_3", "PartitionedCall/zeros_like_5"], "attr": {"T": {"type": "DT_INT64"}}}, {"name": "PartitionedCall/add_16", "op": "AddV2", "input": ["PartitionedCall/Minimum_3", "PartitionedCall/GatherNd_1"], "attr": {"T": {"type": "DT_INT64"}}}, {"name": "PartitionedCall/SelectV2_5", "op": "SelectV2", "input": ["PartitionedCall/Less_4", "PartitionedCall/add_15", "PartitionedCall/Minimum_2"], "attr": {"T": {"type": "DT_INT64"}}}, {"name": "PartitionedCall/SelectV2_6", "op": "SelectV2", "input": ["PartitionedCall/Less_5", "PartitionedCall/add_16", "PartitionedCall/Minimum_3"], "attr": {"T": {"type": "DT_INT64"}}}, {"name": "PartitionedCall/SparseToDense_3", "op": "SparseToDense", "input": ["PartitionedCall/ExpandDims_1", "PartitionedCall/Cast_5", "PartitionedCall/SelectV2_5", "PartitionedCall/zeros_5"], "attr": {"Tindices": {"type": "DT_INT64"}, "T": {"type": "DT_INT64"}, "validate_indices": {"b": true}}}, {"name": "PartitionedCall/SparseToDense_4", "op": "SparseToDense", "input": ["PartitionedCall/ExpandDims_1", "PartitionedCall/Cast_5", "PartitionedCall/SelectV2_6", "PartitionedCall/Const_43"], "attr": {"Tindices": {"type": "DT_INT64"}, "T": {"type": "DT_INT64"}, "validate_indices": {"b": true}}}, {"name": "PartitionedCall/Equal_1", "op": "Equal", "input": ["PartitionedCall/SparseToDense_4", "PartitionedCall/Const_44"], "attr": {"incompatible_shape_error": {"b": true}, "T": {"type": "DT_INT64"}}}, {"name": "PartitionedCall/SelectV2_7", "op": "SelectV2", "input": ["PartitionedCall/Equal_1", "PartitionedCall/Shape_15", "PartitionedCall/SparseToDense_4"], "attr": {"T": {"type": "DT_INT64"}}}, {"name": "PartitionedCall/onnx_tf_prefix_Slice_71", "op": "StridedSlice", "input": ["PartitionedCall/onnx_tf_prefix_Slice_67", "PartitionedCall/SparseToDense_3", "PartitionedCall/SelectV2_7", "PartitionedCall/SparseToDense_5"], "attr": {"new_axis_mask": {"i": "0"}, "end_mask": {"i": "0"}, "T": {"type": "DT_FLOAT"}, "Index": {"type": "DT_INT64"}, "shrink_axis_mask": {"i": "0"}, "begin_mask": {"i": "0"}, "ellipsis_mask": {"i": "0"}}}, {"name": "PartitionedCall/onnx_tf_prefix_Concat_72", "op": "ConcatV2", "input": ["PartitionedCall/transpose_42", "PartitionedCall/onnx_tf_prefix_Slice_71", "PartitionedCall/onnx_tf_prefix_Concat_72/axis"], "attr": {"Tidx": {"type": "DT_INT32"}, "T": {"type": "DT_FLOAT"}, "N": {"i": "2"}}}, {"name": "PartitionedCall/Pad_10", "op": "Pad", "input": ["PartitionedCall/onnx_tf_prefix_Concat_72", "PartitionedCall/Const_46"], "attr": {"T": {"type": "DT_FLOAT"}, "Tpaddings": {"type": "DT_INT32"}}}, {"name": "PartitionedCall/transpose_44", "op": "Transpose", "input": ["PartitionedCall/Pad_10", "PartitionedCall/transpose_44/perm"], "attr": {"T": {"type": "DT_FLOAT"}, "Tperm": {"type": "DT_INT32"}}}, {"name": "PartitionedCall/convolution_11", "op": "Conv2D", "input": ["PartitionedCall/transpose_44", "PartitionedCall/split_22"], "device": "/device:CPU:0", "attr": {"dilations": {"list": {"i": ["1", "1", "1", "1"]}}, "T": {"type": "DT_FLOAT"}, "strides": {"list": {"i": ["1", "1", "1", "1"]}}, "data_format": {"s": "TkhXQw=="}, "use_cudnn_on_gpu": {"b": true}, "explicit_paddings": {"list": {}}, "padding": {"s": "VkFMSUQ="}}}, {"name": "PartitionedCall/Add_17", "op": "Add", "input": ["PartitionedCall/convolution_11", "unknown_65"], "attr": {"T": {"type": "DT_FLOAT"}}}, {"name": "PartitionedCall/transpose_45", "op": "Transpose", "input": ["PartitionedCall/Add_17", "PartitionedCall/transpose_45/perm"], "attr": {"T": {"type": "DT_FLOAT"}, "Tperm": {"type": "DT_INT32"}}}, {"name": "PartitionedCall/onnx_tf_prefix_Relu_74", "op": "Relu", "input": ["PartitionedCall/transpose_45"], "attr": {"T": {"type": "DT_FLOAT"}}}, {"name": "PartitionedCall/onnx_tf_prefix_BatchNormalization_75/mul_1", "op": "Mul", "input": ["PartitionedCall/onnx_tf_prefix_Relu_74", "PartitionedCall/onnx_tf_prefix_BatchNormalization_75/mul"], "attr": {"T": {"type": "DT_FLOAT"}}}, {"name": "PartitionedCall/onnx_tf_prefix_BatchNormalization_75/add_1", "op": "AddV2", "input": ["PartitionedCall/onnx_tf_prefix_BatchNormalization_75/mul_1", "PartitionedCall/onnx_tf_prefix_BatchNormalization_75/sub"], "attr": {"T": {"type": "DT_FLOAT"}}}, {"name": "PartitionedCall/Pad_11", "op": "Pad", "input": ["PartitionedCall/onnx_tf_prefix_BatchNormalization_75/add_1", "PartitionedCall/Const_49"], "attr": {"T": {"type": "DT_FLOAT"}, "Tpaddings": {"type": "DT_INT32"}}}, {"name": "PartitionedCall/transpose_47", "op": "Transpose", "input": ["PartitionedCall/Pad_11", "PartitionedCall/transpose_47/perm"], "attr": {"Tperm": {"type": "DT_INT32"}, "T": {"type": "DT_FLOAT"}}}, {"name": "PartitionedCall/convolution_12", "op": "Conv2D", "input": ["PartitionedCall/transpose_47", "PartitionedCall/split_24"], "device": "/device:CPU:0", "attr": {"dilations": {"list": {"i": ["1", "1", "1", "1"]}}, "T": {"type": "DT_FLOAT"}, "data_format": {"s": "TkhXQw=="}, "strides": {"list": {"i": ["1", "1", "1", "1"]}}, "use_cudnn_on_gpu": {"b": true}, "explicit_paddings": {"list": {}}, "padding": {"s": "VkFMSUQ="}}}, {"name": "PartitionedCall/Add_18", "op": "Add", "input": ["PartitionedCall/convolution_12", "unknown_71"], "attr": {"T": {"type": "DT_FLOAT"}}}, {"name": "PartitionedCall/transpose_48", "op": "Transpose", "input": ["PartitionedCall/Add_18", "PartitionedCall/transpose_48/perm"], "attr": {"T": {"type": "DT_FLOAT"}, "Tperm": {"type": "DT_INT32"}}}, {"name": "PartitionedCall/onnx_tf_prefix_Relu_77", "op": "Relu", "input": ["PartitionedCall/transpose_48"], "attr": {"T": {"type": "DT_FLOAT"}}}, {"name": "PartitionedCall/onnx_tf_prefix_BatchNormalization_78/mul_1", "op": "Mul", "input": ["PartitionedCall/onnx_tf_prefix_Relu_77", "PartitionedCall/onnx_tf_prefix_BatchNormalization_78/mul"], "attr": {"T": {"type": "DT_FLOAT"}}}, {"name": "PartitionedCall/onnx_tf_prefix_BatchNormalization_78/add_1", "op": "AddV2", "input": ["PartitionedCall/onnx_tf_prefix_BatchNormalization_78/mul_1", "PartitionedCall/onnx_tf_prefix_BatchNormalization_78/sub"], "attr": {"T": {"type": "DT_FLOAT"}}}, {"name": "PartitionedCall/transpose_49", "op": "Transpose", "input": ["PartitionedCall/onnx_tf_prefix_BatchNormalization_78/add_1", "PartitionedCall/transpose_49/perm"], "attr": {"Tperm": {"type": "DT_INT32"}, "T": {"type": "DT_FLOAT"}}}, {"name": "PartitionedCall/Shape_18", "op": "Shape", "input": ["PartitionedCall/onnx_tf_prefix_BatchNormalization_78/add_1"], "attr": {"T": {"type": "DT_FLOAT"}, "out_type": {"type": "DT_INT64"}}}, {"name": "PartitionedCall/strided_slice_3", "op": "StridedSlice", "input": ["PartitionedCall/Shape_18", "PartitionedCall/strided_slice_3/stack", "PartitionedCall/strided_slice_3/stack_1", "PartitionedCall/strided_slice_3/stack_2"], "attr": {"shrink_axis_mask": {"i": "0"}, "begin_mask": {"i": "0"}, "ellipsis_mask": {"i": "0"}, "new_axis_mask": {"i": "0"}, "end_mask": {"i": "1"}, "Index": {"type": "DT_INT32"}, "T": {"type": "DT_INT64"}}}, {"name": "PartitionedCall/Cast_6", "op": "Cast", "input": ["PartitionedCall/strided_slice_3"], "attr": {"Truncate": {"b": false}, "DstT": {"type": "DT_FLOAT"}, "SrcT": {"type": "DT_INT64"}}}, {"name": "PartitionedCall/mul_1", "op": "Mul", "input": ["PartitionedCall/strided_slice_2", "PartitionedCall/Cast_6"], "attr": {"T": {"type": "DT_FLOAT"}}}, {"name": "PartitionedCall/Cast_7", "op": "Cast", "input": ["PartitionedCall/mul_1"], "attr": {"Truncate": {"b": false}, "DstT": {"type": "DT_INT32"}, "SrcT": {"type": "DT_FLOAT"}}}, {"name": "PartitionedCall/resize_1/ResizeBilinear", "op": "ResizeBilinear", "input": ["PartitionedCall/transpose_49", "PartitionedCall/Cast_7"], "attr": {"align_corners": {"b": false}, "half_pixel_centers": {"b": true}, "T": {"type": "DT_FLOAT"}}}, {"name": "PartitionedCall/convolution_13", "op": "Conv2D", "input": ["PartitionedCall/resize_1/ResizeBilinear", "PartitionedCall/split_26"], "device": "/device:CPU:0", "attr": {"dilations": {"list": {"i": ["1", "1", "1", "1"]}}, "T": {"type": "DT_FLOAT"}, "data_format": {"s": "TkhXQw=="}, "strides": {"list": {"i": ["1", "1", "1", "1"]}}, "use_cudnn_on_gpu": {"b": true}, "explicit_paddings": {"list": {}}, "padding": {"s": "VkFMSUQ="}}}, {"name": "PartitionedCall/Add_19", "op": "Add", "input": ["PartitionedCall/convolution_13", "unknown_78"], "attr": {"T": {"type": "DT_FLOAT"}}}, {"name": "PartitionedCall/transpose_53", "op": "Transpose", "input": ["PartitionedCall/Add_19", "PartitionedCall/transpose_53/perm"], "attr": {"T": {"type": "DT_FLOAT"}, "Tperm": {"type": "DT_INT32"}}}, {"name": "PartitionedCall/onnx_tf_prefix_Shape_84", "op": "Shape", "input": ["PartitionedCall/transpose_53"], "attr": {"T": {"type": "DT_FLOAT"}, "out_type": {"type": "DT_INT64"}}}, {"name": "PartitionedCall/onnx_tf_prefix_Shape_81", "op": "Shape", "input": ["PartitionedCall/transpose_53"], "attr": {"T": {"type": "DT_FLOAT"}, "out_type": {"type": "DT_INT64"}}}, {"name": "PartitionedCall/onnx_tf_prefix_Gather_86", "op": "GatherV2", "input": ["PartitionedCall/onnx_tf_prefix_Shape_84", "PartitionedCall/onnx_tf_prefix_Constant_85", "PartitionedCall/onnx_tf_prefix_Gather_86/axis"], "attr": {"Taxis": {"type": "DT_INT32"}, "batch_dims": {"i": "0"}, "Tindices": {"type": "DT_INT64"}, "Tparams": {"type": "DT_INT64"}}}, {"name": "PartitionedCall/onnx_tf_prefix_Gather_83", "op": "GatherV2", "input": ["PartitionedCall/onnx_tf_prefix_Shape_81", "PartitionedCall/onnx_tf_prefix_Constant_82", "PartitionedCall/onnx_tf_prefix_Gather_83/axis"], "attr": {"Taxis": {"type": "DT_INT32"}, "batch_dims": {"i": "0"}, "Tindices": {"type": "DT_INT64"}, "Tparams": {"type": "DT_INT64"}}}, {"name": "PartitionedCall/onnx_tf_prefix_Sub_98", "op": "Sub", "input": ["PartitionedCall/onnx_tf_prefix_Gather_92", "PartitionedCall/onnx_tf_prefix_Gather_86"], "attr": {"T": {"type": "DT_INT64"}}}, {"name": "PartitionedCall/onnx_tf_prefix_Sub_93", "op": "Sub", "input": ["PartitionedCall/onnx_tf_prefix_Gather_89", "PartitionedCall/onnx_tf_prefix_Gather_83"], "attr": {"T": {"type": "DT_INT64"}}}, {"name": "PartitionedCall/onnx_tf_prefix_Div_100/Cast", "op": "Cast", "input": ["PartitionedCall/onnx_tf_prefix_Sub_98"], "attr": {"SrcT": {"type": "DT_INT64"}, "Truncate": {"b": false}, "DstT": {"type": "DT_DOUBLE"}}}, {"name": "PartitionedCall/onnx_tf_prefix_Div_95/Cast", "op": "Cast", "input": ["PartitionedCall/onnx_tf_prefix_Sub_93"], "attr": {"Truncate": {"b": false}, "DstT": {"type": "DT_DOUBLE"}, "SrcT": {"type": "DT_INT64"}}}, {"name": "PartitionedCall/onnx_tf_prefix_Div_100", "op": "Mul", "input": ["PartitionedCall/onnx_tf_prefix_Div_100/Cast", "ConstantFolding/PartitionedCall/onnx_tf_prefix_Div_100_recip"], "attr": {"T": {"type": "DT_DOUBLE"}}}, {"name": "PartitionedCall/onnx_tf_prefix_Div_95", "op": "Mul", "input": ["PartitionedCall/onnx_tf_prefix_Div_95/Cast", "ConstantFolding/PartitionedCall/onnx_tf_prefix_Div_95_recip"], "attr": {"T": {"type": "DT_DOUBLE"}}}, {"name": "PartitionedCall/onnx_tf_prefix_Cast_101", "op": "Cast", "input": ["PartitionedCall/onnx_tf_prefix_Div_100"], "attr": {"SrcT": {"type": "DT_DOUBLE"}, "Truncate": {"b": false}, "DstT": {"type": "DT_INT64"}}}, {"name": "PartitionedCall/onnx_tf_prefix_Cast_96", "op": "Cast", "input": ["PartitionedCall/onnx_tf_prefix_Div_95"], "attr": {"SrcT": {"type": "DT_DOUBLE"}, "Truncate": {"b": false}, "DstT": {"type": "DT_INT64"}}}, {"name": "PartitionedCall/onnx_tf_prefix_Unsqueeze_109", "op": "ExpandDims", "input": ["PartitionedCall/onnx_tf_prefix_Cast_101", "PartitionedCall/onnx_tf_prefix_Unsqueeze_109/dim"], "attr": {"Tdim": {"type": "DT_INT32"}, "T": {"type": "DT_INT64"}}}, {"name": "PartitionedCall/onnx_tf_prefix_Add_104", "op": "Add", "input": ["PartitionedCall/onnx_tf_prefix_Cast_101", "PartitionedCall/onnx_tf_prefix_Gather_86"], "attr": {"T": {"type": "DT_INT64"}}}, {"name": "PartitionedCall/onnx_tf_prefix_Unsqueeze_105", "op": "ExpandDims", "input": ["PartitionedCall/onnx_tf_prefix_Cast_96", "PartitionedCall/onnx_tf_prefix_Unsqueeze_105/dim"], "attr": {"Tdim": {"type": "DT_INT32"}, "T": {"type": "DT_INT64"}}}, {"name": "PartitionedCall/onnx_tf_prefix_Add_103", "op": "Add", "input": ["PartitionedCall/onnx_tf_prefix_Cast_96", "PartitionedCall/onnx_tf_prefix_Gather_83"], "attr": {"T": {"type": "DT_INT64"}}}, {"name": "PartitionedCall/onnx_tf_prefix_Unsqueeze_110", "op": "ExpandDims", "input": ["PartitionedCall/onnx_tf_prefix_Add_104", "PartitionedCall/onnx_tf_prefix_Unsqueeze_110/dim"], "attr": {"Tdim": {"type": "DT_INT32"}, "T": {"type": "DT_INT64"}}}, {"name": "PartitionedCall/Minimum_4", "op": "Minimum", "input": ["PartitionedCall/onnx_tf_prefix_Unsqueeze_105", "PartitionedCall/GatherNd_2"], "attr": {"T": {"type": "DT_INT64"}}}, {"name": "PartitionedCall/onnx_tf_prefix_Unsqueeze_106", "op": "ExpandDims", "input": ["PartitionedCall/onnx_tf_prefix_Add_103", "PartitionedCall/onnx_tf_prefix_Unsqueeze_106/dim"], "attr": {"Tdim": {"type": "DT_INT32"}, "T": {"type": "DT_INT64"}}}, {"name": "PartitionedCall/Less_7", "op": "Less", "input": ["PartitionedCall/Minimum_4", "PartitionedCall/zeros_like_7"], "attr": {"T": {"type": "DT_INT64"}}}, {"name": "PartitionedCall/add_21", "op": "AddV2", "input": ["PartitionedCall/Minimum_4", "PartitionedCall/GatherNd_2"], "attr": {"T": {"type": "DT_INT64"}}}, {"name": "PartitionedCall/Minimum_5", "op": "Minimum", "input": ["PartitionedCall/onnx_tf_prefix_Unsqueeze_106", "PartitionedCall/GatherNd_2"], "attr": {"T": {"type": "DT_INT64"}}}, {"name": "PartitionedCall/SelectV2_9", "op": "SelectV2", "input": ["PartitionedCall/Less_7", "PartitionedCall/add_21", "PartitionedCall/Minimum_4"], "attr": {"T": {"type": "DT_INT64"}}}, {"name": "PartitionedCall/Less_8", "op": "Less", "input": ["PartitionedCall/Minimum_5", "PartitionedCall/zeros_like_8"], "attr": {"T": {"type": "DT_INT64"}}}, {"name": "PartitionedCall/add_22", "op": "AddV2", "input": ["PartitionedCall/Minimum_5", "PartitionedCall/GatherNd_2"], "attr": {"T": {"type": "DT_INT64"}}}, {"name": "PartitionedCall/SparseToDense_6", "op": "SparseToDense", "input": ["PartitionedCall/ExpandDims_2", "PartitionedCall/Cast_9", "PartitionedCall/SelectV2_9", "PartitionedCall/zeros_6"], "attr": {"Tindices": {"type": "DT_INT64"}, "T": {"type": "DT_INT64"}, "validate_indices": {"b": true}}}, {"name": "PartitionedCall/SelectV2_10", "op": "SelectV2", "input": ["PartitionedCall/Less_8", "PartitionedCall/add_22", "PartitionedCall/Minimum_5"], "attr": {"T": {"type": "DT_INT64"}}}, {"name": "PartitionedCall/SparseToDense_7", "op": "SparseToDense", "input": ["PartitionedCall/ExpandDims_2", "PartitionedCall/Cast_9", "PartitionedCall/SelectV2_10", "PartitionedCall/Const_54"], "attr": {"Tindices": {"type": "DT_INT64"}, "T": {"type": "DT_INT64"}, "validate_indices": {"b": true}}}, {"name": "PartitionedCall/Equal_2", "op": "Equal", "input": ["PartitionedCall/SparseToDense_7", "PartitionedCall/Const_55"], "attr": {"T": {"type": "DT_INT64"}, "incompatible_shape_error": {"b": true}}}, {"name": "PartitionedCall/SelectV2_11", "op": "SelectV2", "input": ["PartitionedCall/Equal_2", "PartitionedCall/Shape_20", "PartitionedCall/SparseToDense_7"], "attr": {"T": {"type": "DT_INT64"}}}, {"name": "PartitionedCall/onnx_tf_prefix_Slice_108", "op": "StridedSlice", "input": ["PartitionedCall/onnx_tf_prefix_BatchNormalization_21/add_1", "PartitionedCall/SparseToDense_6", "PartitionedCall/SelectV2_11", "PartitionedCall/SparseToDense_8"], "attr": {"new_axis_mask": {"i": "0"}, "end_mask": {"i": "0"}, "T": {"type": "DT_FLOAT"}, "Index": {"type": "DT_INT64"}, "shrink_axis_mask": {"i": "0"}, "ellipsis_mask": {"i": "0"}, "begin_mask": {"i": "0"}}}, {"name": "PartitionedCall/Shape_21", "op": "Shape", "input": ["PartitionedCall/onnx_tf_prefix_Slice_108"], "attr": {"out_type": {"type": "DT_INT64"}, "T": {"type": "DT_FLOAT"}}}, {"name": "PartitionedCall/GatherNd_3", "op": "GatherNd", "input": ["PartitionedCall/Shape_21", "PartitionedCall/ExpandDims_3"], "attr": {"Tindices": {"type": "DT_INT64"}, "Tparams": {"type": "DT_INT64"}}}, {"name": "PartitionedCall/Minimum_6", "op": "Minimum", "input": ["PartitionedCall/onnx_tf_prefix_Unsqueeze_109", "PartitionedCall/GatherNd_3"], "attr": {"T": {"type": "DT_INT64"}}}, {"name": "PartitionedCall/Minimum_7", "op": "Minimum", "input": ["PartitionedCall/onnx_tf_prefix_Unsqueeze_110", "PartitionedCall/GatherNd_3"], "attr": {"T": {"type": "DT_INT64"}}}, {"name": "PartitionedCall/Less_10", "op": "Less", "input": ["PartitionedCall/Minimum_6", "PartitionedCall/zeros_like_10"], "attr": {"T": {"type": "DT_INT64"}}}, {"name": "PartitionedCall/add_24", "op": "AddV2", "input": ["PartitionedCall/Minimum_6", "PartitionedCall/GatherNd_3"], "attr": {"T": {"type": "DT_INT64"}}}, {"name": "PartitionedCall/Less_11", "op": "Less", "input": ["PartitionedCall/Minimum_7", "PartitionedCall/zeros_like_11"], "attr": {"T": {"type": "DT_INT64"}}}, {"name": "PartitionedCall/add_25", "op": "AddV2", "input": ["PartitionedCall/Minimum_7", "PartitionedCall/GatherNd_3"], "attr": {"T": {"type": "DT_INT64"}}}, {"name": "PartitionedCall/SelectV2_13", "op": "SelectV2", "input": ["PartitionedCall/Less_10", "PartitionedCall/add_24", "PartitionedCall/Minimum_6"], "attr": {"T": {"type": "DT_INT64"}}}, {"name": "PartitionedCall/SelectV2_14", "op": "SelectV2", "input": ["PartitionedCall/Less_11", "PartitionedCall/add_25", "PartitionedCall/Minimum_7"], "attr": {"T": {"type": "DT_INT64"}}}, {"name": "PartitionedCall/SparseToDense_9", "op": "SparseToDense", "input": ["PartitionedCall/ExpandDims_3", "PartitionedCall/Cast_11", "PartitionedCall/SelectV2_13", "PartitionedCall/zeros_7"], "attr": {"Tindices": {"type": "DT_INT64"}, "T": {"type": "DT_INT64"}, "validate_indices": {"b": true}}}, {"name": "PartitionedCall/SparseToDense_10", "op": "SparseToDense", "input": ["PartitionedCall/ExpandDims_3", "PartitionedCall/Cast_11", "PartitionedCall/SelectV2_14", "PartitionedCall/Const_57"], "attr": {"Tindices": {"type": "DT_INT64"}, "T": {"type": "DT_INT64"}, "validate_indices": {"b": true}}}, {"name": "PartitionedCall/Equal_3", "op": "Equal", "input": ["PartitionedCall/SparseToDense_10", "PartitionedCall/Const_58"], "attr": {"incompatible_shape_error": {"b": true}, "T": {"type": "DT_INT64"}}}, {"name": "PartitionedCall/SelectV2_15", "op": "SelectV2", "input": ["PartitionedCall/Equal_3", "PartitionedCall/Shape_21", "PartitionedCall/SparseToDense_10"], "attr": {"T": {"type": "DT_INT64"}}}, {"name": "PartitionedCall/onnx_tf_prefix_Slice_112", "op": "StridedSlice", "input": ["PartitionedCall/onnx_tf_prefix_Slice_108", "PartitionedCall/SparseToDense_9", "PartitionedCall/SelectV2_15", "PartitionedCall/SparseToDense_11"], "attr": {"shrink_axis_mask": {"i": "0"}, "ellipsis_mask": {"i": "0"}, "begin_mask": {"i": "0"}, "new_axis_mask": {"i": "0"}, "end_mask": {"i": "0"}, "T": {"type": "DT_FLOAT"}, "Index": {"type": "DT_INT64"}}}, {"name": "PartitionedCall/onnx_tf_prefix_Concat_113", "op": "ConcatV2", "input": ["PartitionedCall/transpose_53", "PartitionedCall/onnx_tf_prefix_Slice_112", "PartitionedCall/onnx_tf_prefix_Concat_113/axis"], "attr": {"N": {"i": "2"}, "Tidx": {"type": "DT_INT32"}, "T": {"type": "DT_FLOAT"}}}, {"name": "PartitionedCall/Pad_12", "op": "Pad", "input": ["PartitionedCall/onnx_tf_prefix_Concat_113", "PartitionedCall/Const_60"], "attr": {"Tpaddings": {"type": "DT_INT32"}, "T": {"type": "DT_FLOAT"}}}, {"name": "PartitionedCall/transpose_55", "op": "Transpose", "input": ["PartitionedCall/Pad_12", "PartitionedCall/transpose_55/perm"], "attr": {"Tperm": {"type": "DT_INT32"}, "T": {"type": "DT_FLOAT"}}}, {"name": "PartitionedCall/convolution_14", "op": "Conv2D", "input": ["PartitionedCall/transpose_55", "PartitionedCall/split_28"], "device": "/device:CPU:0", "attr": {"dilations": {"list": {"i": ["1", "1", "1", "1"]}}, "T": {"type": "DT_FLOAT"}, "strides": {"list": {"i": ["1", "1", "1", "1"]}}, "data_format": {"s": "TkhXQw=="}, "use_cudnn_on_gpu": {"b": true}, "explicit_paddings": {"list": {}}, "padding": {"s": "VkFMSUQ="}}}, {"name": "PartitionedCall/Add_26", "op": "Add", "input": ["PartitionedCall/convolution_14", "unknown_82"], "attr": {"T": {"type": "DT_FLOAT"}}}, {"name": "PartitionedCall/transpose_56", "op": "Transpose", "input": ["PartitionedCall/Add_26", "PartitionedCall/transpose_56/perm"], "attr": {"Tperm": {"type": "DT_INT32"}, "T": {"type": "DT_FLOAT"}}}, {"name": "PartitionedCall/onnx_tf_prefix_Relu_115", "op": "Relu", "input": ["PartitionedCall/transpose_56"], "attr": {"T": {"type": "DT_FLOAT"}}}, {"name": "PartitionedCall/onnx_tf_prefix_BatchNormalization_116/mul_1", "op": "Mul", "input": ["PartitionedCall/onnx_tf_prefix_Relu_115", "PartitionedCall/onnx_tf_prefix_BatchNormalization_116/mul"], "attr": {"T": {"type": "DT_FLOAT"}}}, {"name": "PartitionedCall/onnx_tf_prefix_BatchNormalization_116/add_1", "op": "AddV2", "input": ["PartitionedCall/onnx_tf_prefix_BatchNormalization_116/mul_1", "PartitionedCall/onnx_tf_prefix_BatchNormalization_116/sub"], "attr": {"T": {"type": "DT_FLOAT"}}}, {"name": "PartitionedCall/Pad_13", "op": "Pad", "input": ["PartitionedCall/onnx_tf_prefix_BatchNormalization_116/add_1", "PartitionedCall/Const_63"], "attr": {"Tpaddings": {"type": "DT_INT32"}, "T": {"type": "DT_FLOAT"}}}, {"name": "PartitionedCall/transpose_58", "op": "Transpose", "input": ["PartitionedCall/Pad_13", "PartitionedCall/transpose_58/perm"], "attr": {"T": {"type": "DT_FLOAT"}, "Tperm": {"type": "DT_INT32"}}}, {"name": "PartitionedCall/convolution_15", "op": "Conv2D", "input": ["PartitionedCall/transpose_58", "PartitionedCall/split_30"], "device": "/device:CPU:0", "attr": {"padding": {"s": "VkFMSUQ="}, "dilations": {"list": {"i": ["1", "1", "1", "1"]}}, "T": {"type": "DT_FLOAT"}, "data_format": {"s": "TkhXQw=="}, "strides": {"list": {"i": ["1", "1", "1", "1"]}}, "use_cudnn_on_gpu": {"b": true}, "explicit_paddings": {"list": {}}}}, {"name": "PartitionedCall/Add_27", "op": "Add", "input": ["PartitionedCall/convolution_15", "unknown_88"], "attr": {"T": {"type": "DT_FLOAT"}}}, {"name": "PartitionedCall/transpose_59", "op": "Transpose", "input": ["PartitionedCall/Add_27", "PartitionedCall/transpose_59/perm"], "attr": {"T": {"type": "DT_FLOAT"}, "Tperm": {"type": "DT_INT32"}}}, {"name": "PartitionedCall/onnx_tf_prefix_Relu_118", "op": "Relu", "input": ["PartitionedCall/transpose_59"], "attr": {"T": {"type": "DT_FLOAT"}}}, {"name": "PartitionedCall/onnx_tf_prefix_BatchNormalization_119/mul_1", "op": "Mul", "input": ["PartitionedCall/onnx_tf_prefix_Relu_118", "PartitionedCall/onnx_tf_prefix_BatchNormalization_119/mul"], "attr": {"T": {"type": "DT_FLOAT"}}}, {"name": "PartitionedCall/onnx_tf_prefix_BatchNormalization_119/add_1", "op": "AddV2", "input": ["PartitionedCall/onnx_tf_prefix_BatchNormalization_119/mul_1", "PartitionedCall/onnx_tf_prefix_BatchNormalization_119/sub"], "attr": {"T": {"type": "DT_FLOAT"}}}, {"name": "PartitionedCall/transpose_60", "op": "Transpose", "input": ["PartitionedCall/onnx_tf_prefix_BatchNormalization_119/add_1", "PartitionedCall/transpose_60/perm"], "attr": {"T": {"type": "DT_FLOAT"}, "Tperm": {"type": "DT_INT32"}}}, {"name": "PartitionedCall/Shape_24", "op": "Shape", "input": ["PartitionedCall/onnx_tf_prefix_BatchNormalization_119/add_1"], "attr": {"T": {"type": "DT_FLOAT"}, "out_type": {"type": "DT_INT64"}}}, {"name": "PartitionedCall/strided_slice_5", "op": "StridedSlice", "input": ["PartitionedCall/Shape_24", "PartitionedCall/strided_slice_5/stack", "PartitionedCall/strided_slice_5/stack_1", "PartitionedCall/strided_slice_5/stack_2"], "attr": {"shrink_axis_mask": {"i": "0"}, "ellipsis_mask": {"i": "0"}, "begin_mask": {"i": "0"}, "new_axis_mask": {"i": "0"}, "end_mask": {"i": "1"}, "Index": {"type": "DT_INT32"}, "T": {"type": "DT_INT64"}}}, {"name": "PartitionedCall/Cast_12", "op": "Cast", "input": ["PartitionedCall/strided_slice_5"], "attr": {"SrcT": {"type": "DT_INT64"}, "Truncate": {"b": false}, "DstT": {"type": "DT_FLOAT"}}}, {"name": "PartitionedCall/mul_2", "op": "Mul", "input": ["PartitionedCall/strided_slice_4", "PartitionedCall/Cast_12"], "attr": {"T": {"type": "DT_FLOAT"}}}, {"name": "PartitionedCall/Cast_13", "op": "Cast", "input": ["PartitionedCall/mul_2"], "attr": {"SrcT": {"type": "DT_FLOAT"}, "Truncate": {"b": false}, "DstT": {"type": "DT_INT32"}}}, {"name": "PartitionedCall/resize_2/ResizeBilinear", "op": "ResizeBilinear", "input": ["PartitionedCall/transpose_60", "PartitionedCall/Cast_13"], "attr": {"align_corners": {"b": false}, "half_pixel_centers": {"b": true}, "T": {"type": "DT_FLOAT"}}}, {"name": "PartitionedCall/convolution_16", "op": "Conv2D", "input": ["PartitionedCall/resize_2/ResizeBilinear", "PartitionedCall/split_32"], "device": "/device:CPU:0", "attr": {"dilations": {"list": {"i": ["1", "1", "1", "1"]}}, "T": {"type": "DT_FLOAT"}, "data_format": {"s": "TkhXQw=="}, "strides": {"list": {"i": ["1", "1", "1", "1"]}}, "use_cudnn_on_gpu": {"b": true}, "explicit_paddings": {"list": {}}, "padding": {"s": "VkFMSUQ="}}}, {"name": "PartitionedCall/Add_28", "op": "Add", "input": ["PartitionedCall/convolution_16", "unknown_95"], "attr": {"T": {"type": "DT_FLOAT"}}}, {"name": "PartitionedCall/transpose_64", "op": "Transpose", "input": ["PartitionedCall/Add_28", "PartitionedCall/transpose_64/perm"], "attr": {"T": {"type": "DT_FLOAT"}, "Tperm": {"type": "DT_INT32"}}}, {"name": "PartitionedCall/onnx_tf_prefix_Shape_125", "op": "Shape", "input": ["PartitionedCall/transpose_64"], "attr": {"out_type": {"type": "DT_INT64"}, "T": {"type": "DT_FLOAT"}}}, {"name": "PartitionedCall/onnx_tf_prefix_Shape_122", "op": "Shape", "input": ["PartitionedCall/transpose_64"], "attr": {"T": {"type": "DT_FLOAT"}, "out_type": {"type": "DT_INT64"}}}, {"name": "PartitionedCall/onnx_tf_prefix_Gather_127", "op": "GatherV2", "input": ["PartitionedCall/onnx_tf_prefix_Shape_125", "PartitionedCall/onnx_tf_prefix_Constant_126", "PartitionedCall/onnx_tf_prefix_Gather_127/axis"], "attr": {"Taxis": {"type": "DT_INT32"}, "batch_dims": {"i": "0"}, "Tindices": {"type": "DT_INT64"}, "Tparams": {"type": "DT_INT64"}}}, {"name": "PartitionedCall/onnx_tf_prefix_Gather_124", "op": "GatherV2", "input": ["PartitionedCall/onnx_tf_prefix_Shape_122", "PartitionedCall/onnx_tf_prefix_Constant_123", "PartitionedCall/onnx_tf_prefix_Gather_124/axis"], "attr": {"Taxis": {"type": "DT_INT32"}, "batch_dims": {"i": "0"}, "Tindices": {"type": "DT_INT64"}, "Tparams": {"type": "DT_INT64"}}}, {"name": "PartitionedCall/onnx_tf_prefix_Sub_139", "op": "Sub", "input": ["PartitionedCall/onnx_tf_prefix_Gather_133", "PartitionedCall/onnx_tf_prefix_Gather_127"], "attr": {"T": {"type": "DT_INT64"}}}, {"name": "PartitionedCall/onnx_tf_prefix_Sub_134", "op": "Sub", "input": ["PartitionedCall/onnx_tf_prefix_Gather_130", "PartitionedCall/onnx_tf_prefix_Gather_124"], "attr": {"T": {"type": "DT_INT64"}}}, {"name": "PartitionedCall/onnx_tf_prefix_Div_141/Cast", "op": "Cast", "input": ["PartitionedCall/onnx_tf_prefix_Sub_139"], "attr": {"Truncate": {"b": false}, "DstT": {"type": "DT_DOUBLE"}, "SrcT": {"type": "DT_INT64"}}}, {"name": "PartitionedCall/onnx_tf_prefix_Div_136/Cast", "op": "Cast", "input": ["PartitionedCall/onnx_tf_prefix_Sub_134"], "attr": {"SrcT": {"type": "DT_INT64"}, "Truncate": {"b": false}, "DstT": {"type": "DT_DOUBLE"}}}, {"name": "PartitionedCall/onnx_tf_prefix_Div_141", "op": "Mul", "input": ["PartitionedCall/onnx_tf_prefix_Div_141/Cast", "ConstantFolding/PartitionedCall/onnx_tf_prefix_Div_141_recip"], "attr": {"T": {"type": "DT_DOUBLE"}}}, {"name": "PartitionedCall/onnx_tf_prefix_Div_136", "op": "Mul", "input": ["PartitionedCall/onnx_tf_prefix_Div_136/Cast", "ConstantFolding/PartitionedCall/onnx_tf_prefix_Div_136_recip"], "attr": {"T": {"type": "DT_DOUBLE"}}}, {"name": "PartitionedCall/onnx_tf_prefix_Cast_142", "op": "Cast", "input": ["PartitionedCall/onnx_tf_prefix_Div_141"], "attr": {"Truncate": {"b": false}, "DstT": {"type": "DT_INT64"}, "SrcT": {"type": "DT_DOUBLE"}}}, {"name": "PartitionedCall/onnx_tf_prefix_Cast_137", "op": "Cast", "input": ["PartitionedCall/onnx_tf_prefix_Div_136"], "attr": {"Truncate": {"b": false}, "DstT": {"type": "DT_INT64"}, "SrcT": {"type": "DT_DOUBLE"}}}, {"name": "PartitionedCall/onnx_tf_prefix_Unsqueeze_150", "op": "ExpandDims", "input": ["PartitionedCall/onnx_tf_prefix_Cast_142", "PartitionedCall/onnx_tf_prefix_Unsqueeze_150/dim"], "attr": {"Tdim": {"type": "DT_INT32"}, "T": {"type": "DT_INT64"}}}, {"name": "PartitionedCall/onnx_tf_prefix_Add_145", "op": "Add", "input": ["PartitionedCall/onnx_tf_prefix_Cast_142", "PartitionedCall/onnx_tf_prefix_Gather_127"], "attr": {"T": {"type": "DT_INT64"}}}, {"name": "PartitionedCall/onnx_tf_prefix_Unsqueeze_146", "op": "ExpandDims", "input": ["PartitionedCall/onnx_tf_prefix_Cast_137", "PartitionedCall/onnx_tf_prefix_Unsqueeze_146/dim"], "attr": {"Tdim": {"type": "DT_INT32"}, "T": {"type": "DT_INT64"}}}, {"name": "PartitionedCall/onnx_tf_prefix_Add_144", "op": "Add", "input": ["PartitionedCall/onnx_tf_prefix_Cast_137", "PartitionedCall/onnx_tf_prefix_Gather_124"], "attr": {"T": {"type": "DT_INT64"}}}, {"name": "PartitionedCall/onnx_tf_prefix_Unsqueeze_151", "op": "ExpandDims", "input": ["PartitionedCall/onnx_tf_prefix_Add_145", "PartitionedCall/onnx_tf_prefix_Unsqueeze_151/dim"], "attr": {"Tdim": {"type": "DT_INT32"}, "T": {"type": "DT_INT64"}}}, {"name": "PartitionedCall/Minimum_8", "op": "Minimum", "input": ["PartitionedCall/onnx_tf_prefix_Unsqueeze_146", "PartitionedCall/GatherNd_4"], "attr": {"T": {"type": "DT_INT64"}}}, {"name": "PartitionedCall/onnx_tf_prefix_Unsqueeze_147", "op": "ExpandDims", "input": ["PartitionedCall/onnx_tf_prefix_Add_144", "PartitionedCall/onnx_tf_prefix_Unsqueeze_147/dim"], "attr": {"Tdim": {"type": "DT_INT32"}, "T": {"type": "DT_INT64"}}}, {"name": "PartitionedCall/Less_13", "op": "Less", "input": ["PartitionedCall/Minimum_8", "PartitionedCall/zeros_like_13"], "attr": {"T": {"type": "DT_INT64"}}}, {"name": "PartitionedCall/add_30", "op": "AddV2", "input": ["PartitionedCall/Minimum_8", "PartitionedCall/GatherNd_4"], "attr": {"T": {"type": "DT_INT64"}}}, {"name": "PartitionedCall/Minimum_9", "op": "Minimum", "input": ["PartitionedCall/onnx_tf_prefix_Unsqueeze_147", "PartitionedCall/GatherNd_4"], "attr": {"T": {"type": "DT_INT64"}}}, {"name": "PartitionedCall/SelectV2_17", "op": "SelectV2", "input": ["PartitionedCall/Less_13", "PartitionedCall/add_30", "PartitionedCall/Minimum_8"], "attr": {"T": {"type": "DT_INT64"}}}, {"name": "PartitionedCall/Less_14", "op": "Less", "input": ["PartitionedCall/Minimum_9", "PartitionedCall/zeros_like_14"], "attr": {"T": {"type": "DT_INT64"}}}, {"name": "PartitionedCall/add_31", "op": "AddV2", "input": ["PartitionedCall/Minimum_9", "PartitionedCall/GatherNd_4"], "attr": {"T": {"type": "DT_INT64"}}}, {"name": "PartitionedCall/SparseToDense_12", "op": "SparseToDense", "input": ["PartitionedCall/ExpandDims_4", "PartitionedCall/Cast_15", "PartitionedCall/SelectV2_17", "PartitionedCall/zeros_8"], "attr": {"Tindices": {"type": "DT_INT64"}, "T": {"type": "DT_INT64"}, "validate_indices": {"b": true}}}, {"name": "PartitionedCall/SelectV2_18", "op": "SelectV2", "input": ["PartitionedCall/Less_14", "PartitionedCall/add_31", "PartitionedCall/Minimum_9"], "attr": {"T": {"type": "DT_INT64"}}}, {"name": "PartitionedCall/SparseToDense_13", "op": "SparseToDense", "input": ["PartitionedCall/ExpandDims_4", "PartitionedCall/Cast_15", "PartitionedCall/SelectV2_18", "PartitionedCall/Const_68"], "attr": {"Tindices": {"type": "DT_INT64"}, "T": {"type": "DT_INT64"}, "validate_indices": {"b": true}}}, {"name": "PartitionedCall/Equal_4", "op": "Equal", "input": ["PartitionedCall/SparseToDense_13", "PartitionedCall/Const_69"], "attr": {"incompatible_shape_error": {"b": true}, "T": {"type": "DT_INT64"}}}, {"name": "PartitionedCall/SelectV2_19", "op": "SelectV2", "input": ["PartitionedCall/Equal_4", "PartitionedCall/Shape_26", "PartitionedCall/SparseToDense_13"], "attr": {"T": {"type": "DT_INT64"}}}, {"name": "PartitionedCall/onnx_tf_prefix_Slice_149", "op": "StridedSlice", "input": ["PartitionedCall/onnx_tf_prefix_BatchNormalization_13/add_1", "PartitionedCall/SparseToDense_12", "PartitionedCall/SelectV2_19", "PartitionedCall/SparseToDense_14"], "attr": {"new_axis_mask": {"i": "0"}, "end_mask": {"i": "0"}, "Index": {"type": "DT_INT64"}, "T": {"type": "DT_FLOAT"}, "shrink_axis_mask": {"i": "0"}, "begin_mask": {"i": "0"}, "ellipsis_mask": {"i": "0"}}}, {"name": "PartitionedCall/Shape_27", "op": "Shape", "input": ["PartitionedCall/onnx_tf_prefix_Slice_149"], "attr": {"out_type": {"type": "DT_INT64"}, "T": {"type": "DT_FLOAT"}}}, {"name": "PartitionedCall/GatherNd_5", "op": "GatherNd", "input": ["PartitionedCall/Shape_27", "PartitionedCall/ExpandDims_5"], "attr": {"Tindices": {"type": "DT_INT64"}, "Tparams": {"type": "DT_INT64"}}}, {"name": "PartitionedCall/Minimum_10", "op": "Minimum", "input": ["PartitionedCall/onnx_tf_prefix_Unsqueeze_150", "PartitionedCall/GatherNd_5"], "attr": {"T": {"type": "DT_INT64"}}}, {"name": "PartitionedCall/Minimum_11", "op": "Minimum", "input": ["PartitionedCall/onnx_tf_prefix_Unsqueeze_151", "PartitionedCall/GatherNd_5"], "attr": {"T": {"type": "DT_INT64"}}}, {"name": "PartitionedCall/Less_16", "op": "Less", "input": ["PartitionedCall/Minimum_10", "PartitionedCall/zeros_like_16"], "attr": {"T": {"type": "DT_INT64"}}}, {"name": "PartitionedCall/add_33", "op": "AddV2", "input": ["PartitionedCall/Minimum_10", "PartitionedCall/GatherNd_5"], "attr": {"T": {"type": "DT_INT64"}}}, {"name": "PartitionedCall/Less_17", "op": "Less", "input": ["PartitionedCall/Minimum_11", "PartitionedCall/zeros_like_17"], "attr": {"T": {"type": "DT_INT64"}}}, {"name": "PartitionedCall/add_34", "op": "AddV2", "input": ["PartitionedCall/Minimum_11", "PartitionedCall/GatherNd_5"], "attr": {"T": {"type": "DT_INT64"}}}, {"name": "PartitionedCall/SelectV2_21", "op": "SelectV2", "input": ["PartitionedCall/Less_16", "PartitionedCall/add_33", "PartitionedCall/Minimum_10"], "attr": {"T": {"type": "DT_INT64"}}}, {"name": "PartitionedCall/SelectV2_22", "op": "SelectV2", "input": ["PartitionedCall/Less_17", "PartitionedCall/add_34", "PartitionedCall/Minimum_11"], "attr": {"T": {"type": "DT_INT64"}}}, {"name": "PartitionedCall/SparseToDense_15", "op": "SparseToDense", "input": ["PartitionedCall/ExpandDims_5", "PartitionedCall/Cast_17", "PartitionedCall/SelectV2_21", "PartitionedCall/zeros_9"], "attr": {"Tindices": {"type": "DT_INT64"}, "T": {"type": "DT_INT64"}, "validate_indices": {"b": true}}}, {"name": "PartitionedCall/SparseToDense_16", "op": "SparseToDense", "input": ["PartitionedCall/ExpandDims_5", "PartitionedCall/Cast_17", "PartitionedCall/SelectV2_22", "PartitionedCall/Const_71"], "attr": {"Tindices": {"type": "DT_INT64"}, "T": {"type": "DT_INT64"}, "validate_indices": {"b": true}}}, {"name": "PartitionedCall/Equal_5", "op": "Equal", "input": ["PartitionedCall/SparseToDense_16", "PartitionedCall/Const_72"], "attr": {"T": {"type": "DT_INT64"}, "incompatible_shape_error": {"b": true}}}, {"name": "PartitionedCall/SelectV2_23", "op": "SelectV2", "input": ["PartitionedCall/Equal_5", "PartitionedCall/Shape_27", "PartitionedCall/SparseToDense_16"], "attr": {"T": {"type": "DT_INT64"}}}, {"name": "PartitionedCall/onnx_tf_prefix_Slice_153", "op": "StridedSlice", "input": ["PartitionedCall/onnx_tf_prefix_Slice_149", "PartitionedCall/SparseToDense_15", "PartitionedCall/SelectV2_23", "PartitionedCall/SparseToDense_17"], "attr": {"T": {"type": "DT_FLOAT"}, "Index": {"type": "DT_INT64"}, "shrink_axi…
pe": "DT_FLOAT"}}}, {"name": "PartitionedCall/convolution_17", "op": "Conv2D", "input": ["PartitionedCall/transpose_66", "PartitionedCall/split_34"], "device": "/device:CPU:0", "attr": {"padding": {"s": "VkFMSUQ="}, "dilations": {"list": {"i": ["1", "1", "1", "1"]}}, "T": {"type": "DT_FLOAT"}, "strides": {"list": {"i": ["1", "1", "1", "1"]}}, "data_format": {"s": "TkhXQw=="}, "use_cudnn_on_gpu": {"b": true}, "explicit_paddings": {"list": {}}}}, {"name": "PartitionedCall/Add_35", "op": "Add", "input": ["PartitionedCall/convolution_17", "unknown_99"], "attr": {"T": {"type": "DT_FLOAT"}}}, {"name": "PartitionedCall/transpose_67", "op": "Transpose", "input": ["PartitionedCall/Add_35", "PartitionedCall/transpose_67/perm"], "attr": {"Tperm": {"type": "DT_INT32"}, "T": {"type": "DT_FLOAT"}}}, {"name": "PartitionedCall/onnx_tf_prefix_Relu_156", "op": "Relu", "input": ["PartitionedCall/transpose_67"], "attr": {"T": {"type": "DT_FLOAT"}}}, {"name": "PartitionedCall/onnx_tf_prefix_BatchNormalization_157/mul_1", "op": "Mul", "input": ["PartitionedCall/onnx_tf_prefix_Relu_156", "PartitionedCall/onnx_tf_prefix_BatchNormalization_157/mul"], "attr": {"T": {"type": "DT_FLOAT"}}}, {"name": "PartitionedCall/onnx_tf_prefix_BatchNormalization_157/add_1", "op": "AddV2", "input": ["PartitionedCall/onnx_tf_prefix_BatchNormalization_157/mul_1", "PartitionedCall/onnx_tf_prefix_BatchNormalization_157/sub"], "attr": {"T": {"type": "DT_FLOAT"}}}, {"name": "PartitionedCall/Pad_15", "op": "Pad", "input": ["PartitionedCall/onnx_tf_prefix_BatchNormalization_157/add_1", "PartitionedCall/Const_77"], "attr": {"T": {"type": "DT_FLOAT"}, "Tpaddings": {"type": "DT_INT32"}}}, {"name": "PartitionedCall/transpose_69", "op": "Transpose", "input": ["PartitionedCall/Pad_15", "PartitionedCall/transpose_69/perm"], "attr": {"T": {"type": "DT_FLOAT"}, "Tperm": {"type": "DT_INT32"}}}, {"name": "PartitionedCall/convolution_18", "op": "Conv2D", "input": ["PartitionedCall/transpose_69", "PartitionedCall/split_36"], "device": "/device:CPU:0", "attr": {"dilations": {"list": {"i": ["1", "1", "1", "1"]}}, "T": {"type": "DT_FLOAT"}, "data_format": {"s": "TkhXQw=="}, "strides": {"list": {"i": ["1", "1", "1", "1"]}}, "use_cudnn_on_gpu": {"b": true}, "explicit_paddings": {"list": {}}, "padding": {"s": "VkFMSUQ="}}}, {"name": "PartitionedCall/Add_36", "op": "Add", "input": ["PartitionedCall/convolution_18", "unknown_105"], "attr": {"T": {"type": "DT_FLOAT"}}}, {"name": "PartitionedCall/transpose_70", "op": "Transpose", "input": ["PartitionedCall/Add_36", "PartitionedCall/transpose_70/perm"], "attr": {"Tperm": {"type": "DT_INT32"}, "T": {"type": "DT_FLOAT"}}}, {"name": "PartitionedCall/onnx_tf_prefix_Relu_159", "op": "Relu", "input": ["PartitionedCall/transpose_70"], "attr": {"T": {"type": "DT_FLOAT"}}}, {"name": "PartitionedCall/onnx_tf_prefix_BatchNormalization_160/mul_1", "op": "Mul", "input": ["PartitionedCall/onnx_tf_prefix_Relu_159", "PartitionedCall/onnx_tf_prefix_BatchNormalization_160/mul"], "attr": {"T": {"type": "DT_FLOAT"}}}, {"name": "PartitionedCall/onnx_tf_prefix_BatchNormalization_160/add_1", "op": "AddV2", "input": ["PartitionedCall/onnx_tf_prefix_BatchNormalization_160/mul_1", "PartitionedCall/onnx_tf_prefix_BatchNormalization_160/sub"], "attr": {"T": {"type": "DT_FLOAT"}}}, {"name": "PartitionedCall/transpose_71", "op": "Transpose", "input": ["PartitionedCall/onnx_tf_prefix_BatchNormalization_160/add_1", "PartitionedCall/transpose_71/perm"], "attr": {"Tperm": {"type": "DT_INT32"}, "T": {"type": "DT_FLOAT"}}}, {"name": "PartitionedCall/Shape_30", "op": "Shape", "input": ["PartitionedCall/onnx_tf_prefix_BatchNormalization_160/add_1"], "attr": {"out_type": {"type": "DT_INT64"}, "T": {"type": "DT_FLOAT"}}}, {"name": "PartitionedCall/strided_slice_7", "op": "StridedSlice", "input": ["PartitionedCall/Shape_30", "PartitionedCall/strided_slice_7/stack", "PartitionedCall/strided_slice_7/stack_1", "PartitionedCall/strided_slice_7/stack_2"], "attr": {"new_axis_mask": {"i": "0"}, "end_mask": {"i": "1"}, "T": {"type": "DT_INT64"}, "Index": {"type": "DT_INT32"}, "shrink_axis_mask": {"i": "0"}, "begin_mask": {"i": "0"}, "ellipsis_mask": {"i": "0"}}}, {"name": "PartitionedCall/Cast_18", "op": "Cast", "input": ["PartitionedCall/strided_slice_7"], "attr": {"SrcT": {"type": "DT_INT64"}, "Truncate": {"b": false}, "DstT": {"type": "DT_FLOAT"}}}, {"name": "PartitionedCall/mul_3", "op": "Mul", "input": ["PartitionedCall/strided_slice_6", "PartitionedCall/Cast_18"], "attr": {"T": {"type": "DT_FLOAT"}}}, {"name": "PartitionedCall/Cast_19", "op": "Cast", "input": ["PartitionedCall/mul_3"], "attr": {"SrcT": {"type": "DT_FLOAT"}, "Truncate": {"b": false}, "DstT": {"type": "DT_INT32"}}}, {"name": "PartitionedCall/resize_3/ResizeBilinear", "op": "ResizeBilinear", "input": ["PartitionedCall/transpose_71", "PartitionedCall/Cast_19"], "attr": {"align_corners": {"b": false}, "half_pixel_centers": {"b": true}, "T": {"type": "DT_FLOAT"}}}, {"name": "PartitionedCall/convolution_19", "op": "Conv2D", "input": ["PartitionedCall/resize_3/ResizeBilinear", "PartitionedCall/split_38"], "device": "/device:CPU:0", "attr": {"padding": {"s": "VkFMSUQ="}, "dilations": {"list": {"i": ["1", "1", "1", "1"]}}, "T": {"type": "DT_FLOAT"}, "data_format": {"s": "TkhXQw=="}, "strides": {"list": {"i": ["1", "1", "1", "1"]}}, "use_cudnn_on_gpu": {"b": true}, "explicit_paddings": {"list": {}}}}, {"name": "PartitionedCall/Add_37", "op": "Add", "input": ["PartitionedCall/convolution_19", "unknown_112"], "attr": {"T": {"type": "DT_FLOAT"}}}, {"name": "PartitionedCall/transpose_75", "op": "Transpose", "input": ["PartitionedCall/Add_37", "PartitionedCall/transpose_75/perm"], "attr": {"T": {"type": "DT_FLOAT"}, "Tperm": {"type": "DT_INT32"}}}, {"name": "PartitionedCall/onnx_tf_prefix_Shape_166", "op": "Shape", "input": ["PartitionedCall/transpose_75"], "attr": {"out_type": {"type": "DT_INT64"}, "T": {"type": "DT_FLOAT"}}}, {"name": "PartitionedCall/onnx_tf_prefix_Shape_163", "op": "Shape", "input": ["PartitionedCall/transpose_75"], "attr": {"T": {"type": "DT_FLOAT"}, "out_type": {"type": "DT_INT64"}}}, {"name": "PartitionedCall/onnx_tf_prefix_Gather_168", "op": "GatherV2", "input": ["PartitionedCall/onnx_tf_prefix_Shape_166", "PartitionedCall/onnx_tf_prefix_Constant_167", "PartitionedCall/onnx_tf_prefix_Gather_168/axis"], "attr": {"Taxis": {"type": "DT_INT32"}, "batch_dims": {"i": "0"}, "Tindices": {"type": "DT_INT64"}, "Tparams": {"type": "DT_INT64"}}}, {"name": "PartitionedCall/onnx_tf_prefix_Gather_165", "op": "GatherV2", "input": ["PartitionedCall/onnx_tf_prefix_Shape_163", "PartitionedCall/onnx_tf_prefix_Constant_164", "PartitionedCall/onnx_tf_prefix_Gather_165/axis"], "attr": {"Taxis": {"type": "DT_INT32"}, "batch_dims": {"i": "0"}, "Tindices": {"type": "DT_INT64"}, "Tparams": {"type": "DT_INT64"}}}, {"name": "PartitionedCall/onnx_tf_prefix_Sub_180", "op": "Sub", "input": ["PartitionedCall/onnx_tf_prefix_Gather_174", "PartitionedCall/onnx_tf_prefix_Gather_168"], "attr": {"T": {"type": "DT_INT64"}}}, {"name": "PartitionedCall/onnx_tf_prefix_Sub_175", "op": "Sub", "input": ["PartitionedCall/onnx_tf_prefix_Gather_171", "PartitionedCall/onnx_tf_prefix_Gather_165"], "attr": {"T": {"type": "DT_INT64"}}}, {"name": "PartitionedCall/onnx_tf_prefix_Div_182/Cast", "op": "Cast", "input": ["PartitionedCall/onnx_tf_prefix_Sub_180"], "attr": {"SrcT": {"type": "DT_INT64"}, "Truncate": {"b": false}, "DstT": {"type": "DT_DOUBLE"}}}, {"name": "PartitionedCall/onnx_tf_prefix_Div_177/Cast", "op": "Cast", "input": ["PartitionedCall/onnx_tf_prefix_Sub_175"], "attr": {"SrcT": {"type": "DT_INT64"}, "Truncate": {"b": false}, "DstT": {"type": "DT_DOUBLE"}}}, {"name": "PartitionedCall/onnx_tf_prefix_Div_182", "op": "Mul", "input": ["PartitionedCall/onnx_tf_prefix_Div_182/Cast", "ConstantFolding/PartitionedCall/onnx_tf_prefix_Div_182_recip"], "attr": {"T": {"type": "DT_DOUBLE"}}}, {"name": "PartitionedCall/onnx_tf_prefix_Div_177", "op": "Mul", "input": ["PartitionedCall/onnx_tf_prefix_Div_177/Cast", "ConstantFolding/PartitionedCall/onnx_tf_prefix_Div_177_recip"], "attr": {"T": {"type": "DT_DOUBLE"}}}, {"name": "PartitionedCall/onnx_tf_prefix_Cast_183", "op": "Cast", "input": ["PartitionedCall/onnx_tf_prefix_Div_182"], "attr": {"Truncate": {"b": false}, "DstT": {"type": "DT_INT64"}, "SrcT": {"type": "DT_DOUBLE"}}}, {"name": "PartitionedCall/onnx_tf_prefix_Cast_178", "op": "Cast", "input": ["PartitionedCall/onnx_tf_prefix_Div_177"], "attr": {"SrcT": {"type": "DT_DOUBLE"}, "Truncate": {"b": false}, "DstT": {"type": "DT_INT64"}}}, {"name": "PartitionedCall/onnx_tf_prefix_Unsqueeze_191", "op": "ExpandDims", "input": ["PartitionedCall/onnx_tf_prefix_Cast_183", "PartitionedCall/onnx_tf_prefix_Unsqueeze_191/dim"], "attr": {"Tdim": {"type": "DT_INT32"}, "T": {"type": "DT_INT64"}}}, {"name": "PartitionedCall/onnx_tf_prefix_Add_186", "op": "Add", "input": ["PartitionedCall/onnx_tf_prefix_Cast_183", "PartitionedCall/onnx_tf_prefix_Gather_168"], "attr": {"T": {"type": "DT_INT64"}}}, {"name": "PartitionedCall/onnx_tf_prefix_Unsqueeze_187", "op": "ExpandDims", "input": ["PartitionedCall/onnx_tf_prefix_Cast_178", "PartitionedCall/onnx_tf_prefix_Unsqueeze_187/dim"], "attr": {"Tdim": {"type": "DT_INT32"}, "T": {"type": "DT_INT64"}}}, {"name": "PartitionedCall/onnx_tf_prefix_Add_185", "op": "Add", "input": ["PartitionedCall/onnx_tf_prefix_Cast_178", "PartitionedCall/onnx_tf_prefix_Gather_165"], "attr": {"T": {"type": "DT_INT64"}}}, {"name": "PartitionedCall/onnx_tf_prefix_Unsqueeze_192", "op": "ExpandDims", "input": ["PartitionedCall/onnx_tf_prefix_Add_186", "PartitionedCall/onnx_tf_prefix_Unsqueeze_192/dim"], "attr": {"Tdim": {"type": "DT_INT32"}, "T": {"type": "DT_INT64"}}}, {"name": "PartitionedCall/Minimum_12", "op": "Minimum", "input": ["PartitionedCall/onnx_tf_prefix_Unsqueeze_187", "PartitionedCall/GatherNd_6"], "attr": {"T": {"type": "DT_INT64"}}}, {"name": "PartitionedCall/onnx_tf_prefix_Unsqueeze_188", "op": "ExpandDims", "input": ["PartitionedCall/onnx_tf_prefix_Add_185", "PartitionedCall/onnx_tf_prefix_Unsqueeze_188/dim"], "attr": {"Tdim": {"type": "DT_INT32"}, "T": {"type": "DT_INT64"}}}, {"name": "PartitionedCall/Less_19", "op": "Less", "input": ["PartitionedCall/Minimum_12", "PartitionedCall/zeros_like_19"], "attr": {"T": {"type": "DT_INT64"}}}, {"name": "PartitionedCall/add_39", "op": "AddV2", "input": ["PartitionedCall/Minimum_12", "PartitionedCall/GatherNd_6"], "attr": {"T": {"type": "DT_INT64"}}}, {"name": "PartitionedCall/Minimum_13", "op": "Minimum", "input": ["PartitionedCall/onnx_tf_prefix_Unsqueeze_188", "PartitionedCall/GatherNd_6"], "attr": {"T": {"type": "DT_INT64"}}}, {"name": "PartitionedCall/SelectV2_25", "op": "SelectV2", "input": ["PartitionedCall/Less_19", "PartitionedCall/add_39", "PartitionedCall/Minimum_12"], "attr": {"T": {"type": "DT_INT64"}}}, {"name": "PartitionedCall/Less_20", "op": "Less", "input": ["PartitionedCall/Minimum_13", "PartitionedCall/zeros_like_20"], "attr": {"T": {"type": "DT_INT64"}}}, {"name": "PartitionedCall/add_40", "op": "AddV2", "input": ["PartitionedCall/Minimum_13", "PartitionedCall/GatherNd_6"], "attr": {"T": {"type": "DT_INT64"}}}, {"name": "PartitionedCall/SparseToDense_18", "op": "SparseToDense", "input": ["PartitionedCall/ExpandDims_6", "PartitionedCall/Cast_21", "PartitionedCall/SelectV2_25", "PartitionedCall/zeros_10"], "attr": {"Tindices": {"type": "DT_INT64"}, "T": {"type": "DT_INT64"}, "validate_indices": {"b": true}}}, {"name": "PartitionedCall/SelectV2_26", "op": "SelectV2", "input": ["PartitionedCall/Less_20", "PartitionedCall/add_40", "PartitionedCall/Minimum_13"], "attr": {"T": {"type": "DT_INT64"}}}, {"name": "PartitionedCall/SparseToDense_19", "op": "SparseToDense", "input": ["PartitionedCall/ExpandDims_6", "PartitionedCall/Cast_21", "PartitionedCall/SelectV2_26", "PartitionedCall/Const_82"], "attr": {"Tindices": {"type": "DT_INT64"}, "T": {"type": "DT_INT64"}, "validate_indices": {"b": true}}}, {"name": "PartitionedCall/Equal_6", "op": "Equal", "input": ["PartitionedCall/SparseToDense_19", "PartitionedCall/Const_83"], "attr": {"incompatible_shape_error": {"b": true}, "T": {"type": "DT_INT64"}}}, {"name": "PartitionedCall/SelectV2_27", "op": "SelectV2", "input": ["PartitionedCall/Equal_6", "PartitionedCall/Shape_32", "PartitionedCall/SparseToDense_19"], "attr": {"T": {"type": "DT_INT64"}}}, {"name": "PartitionedCall/onnx_tf_prefix_Slice_190", "op": "StridedSlice", "input": ["PartitionedCall/onnx_tf_prefix_BatchNormalization_5/add_1", "PartitionedCall/SparseToDense_18", "PartitionedCall/SelectV2_27", "PartitionedCall/SparseToDense_20"], "attr": {"new_axis_mask": {"i": "0"}, "end_mask": {"i": "0"}, "Index": {"type": "DT_INT64"}, "T": {"type": "DT_FLOAT"}, "shrink_axis_mask": {"i": "0"}, "begin_mask": {"i": "0"}, "ellipsis_mask": {"i": "0"}}}, {"name": "PartitionedCall/Shape_33", "op": "Shape", "input": ["PartitionedCall/onnx_tf_prefix_Slice_190"], "attr": {"T": {"type": "DT_FLOAT"}, "out_type": {"type": "DT_INT64"}}}, {"name": "PartitionedCall/GatherNd_7", "op": "GatherNd", "input": ["PartitionedCall/Shape_33", "PartitionedCall/ExpandDims_7"], "attr": {"Tindices": {"type": "DT_INT64"}, "Tparams": {"type": "DT_INT64"}}}, {"name": "PartitionedCall/Minimum_14", "op": "Minimum", "input": ["PartitionedCall/onnx_tf_prefix_Unsqueeze_191", "PartitionedCall/GatherNd_7"], "attr": {"T": {"type": "DT_INT64"}}}, {"name": "PartitionedCall/Minimum_15", "op": "Minimum", "input": ["PartitionedCall/onnx_tf_prefix_Unsqueeze_192", "PartitionedCall/GatherNd_7"], "attr": {"T": {"type": "DT_INT64"}}}, {"name": "PartitionedCall/Less_22", "op": "Less", "input": ["PartitionedCall/Minimum_14", "PartitionedCall/zeros_like_22"], "attr": {"T": {"type": "DT_INT64"}}}, {"name": "PartitionedCall/add_42", "op": "AddV2", "input": ["PartitionedCall/Minimum_14", "PartitionedCall/GatherNd_7"], "attr": {"T": {"type": "DT_INT64"}}}, {"name": "PartitionedCall/Less_23", "op": "Less", "input": ["PartitionedCall/Minimum_15", "PartitionedCall/zeros_like_23"], "attr": {"T": {"type": "DT_INT64"}}}, {"name": "PartitionedCall/add_43", "op": "AddV2", "input": ["PartitionedCall/Minimum_15", "PartitionedCall/GatherNd_7"], "attr": {"T": {"type": "DT_INT64"}}}, {"name": "PartitionedCall/SelectV2_29", "op": "SelectV2", "input": ["PartitionedCall/Less_22", "PartitionedCall/add_42", "PartitionedCall/Minimum_14"], "attr": {"T": {"type": "DT_INT64"}}}, {"name": "PartitionedCall/SelectV2_30", "op": "SelectV2", "input": ["PartitionedCall/Less_23", "PartitionedCall/add_43", "PartitionedCall/Minimum_15"], "attr": {"T": {"type": "DT_INT64"}}}, {"name": "PartitionedCall/SparseToDense_21", "op": "SparseToDense", "input": ["PartitionedCall/ExpandDims_7", "PartitionedCall/Cast_23", "PartitionedCall/SelectV2_29", "PartitionedCall/zeros_11"], "attr": {"Tindices": {"type": "DT_INT64"}, "T": {"type": "DT_INT64"}, "validate_indices": {"b": true}}}, {"name": "PartitionedCall/SparseToDense_22", "op": "SparseToDense", "input": ["PartitionedCall/ExpandDims_7", "PartitionedCall/Cast_23", "PartitionedCall/SelectV2_30", "PartitionedCall/Const_85"], "attr": {"Tindices": {"type": "DT_INT64"}, "T": {"type": "DT_INT64"}, "validate_indices": {"b": true}}}, {"name": "PartitionedCall/Equal_7", "op": "Equal", "input": ["PartitionedCall/SparseToDense_22", "PartitionedCall/Const_86"], "attr": {"incompatible_shape_error": {"b": true}, "T": {"type": "DT_INT64"}}}, {"name": "PartitionedCall/SelectV2_31", "op": "SelectV2", "input": ["PartitionedCall/Equal_7", "PartitionedCall/Shape_33", "PartitionedCall/SparseToDense_22"], "attr": {"T": {"type": "DT_INT64"}}}, {"name": "PartitionedCall/onnx_tf_prefix_Slice_194", "op": "StridedSlice", "input": ["PartitionedCall/onnx_tf_prefix_Slice_190", "PartitionedCall/SparseToDense_21", "PartitionedCall/SelectV2_31", "PartitionedCall/SparseToDense_23"], "attr": {"shrink_axis_mask": {"i": "0"}, "ellipsis_mask": {"i": "0"}, "begin_mask": {"i": "0"}, "new_axis_mask": {"i": "0"}, "end_mask": {"i": "0"}, "Index": {"type": "DT_INT64"}, "T": {"type": "DT_FLOAT"}}}, {"name": "PartitionedCall/onnx_tf_prefix_Concat_195", "op": "ConcatV2", "input": ["PartitionedCall/transpose_75", "PartitionedCall/onnx_tf_prefix_Slice_194", "PartitionedCall/onnx_tf_prefix_Concat_195/axis"], "attr": {"Tidx": {"type": "DT_INT32"}, "T": {"type": "DT_FLOAT"}, "N": {"i": "2"}}}, {"name": "PartitionedCall/Pad_16", "op": "Pad", "input": ["PartitionedCall/onnx_tf_prefix_Concat_195", "PartitionedCall/Const_88"], "attr": {"Tpaddings": {"type": "DT_INT32"}, "T": {"type": "DT_FLOAT"}}}, {"name": "PartitionedCall/transpose_77", "op": "Transpose", "input": ["PartitionedCall/Pad_16", "PartitionedCall/transpose_77/perm"], "attr": {"Tperm": {"type": "DT_INT32"}, "T": {"type": "DT_FLOAT"}}}, {"name": "PartitionedCall/convolution_20", "op": "Conv2D", "input": ["PartitionedCall/transpose_77", "PartitionedCall/split_40"], "device": "/device:CPU:0", "attr": {"padding": {"s": "VkFMSUQ="}, "dilations": {"list": {"i": ["1", "1", "1", "1"]}}, "T": {"type": "DT_FLOAT"}, "data_format": {"s": "TkhXQw=="}, "strides": {"list": {"i": ["1", "1", "1", "1"]}}, "explicit_paddings": {"list": {}}, "use_cudnn_on_gpu": {"b": true}}}, {"name": "PartitionedCall/Add_44", "op": "Add", "input": ["PartitionedCall/convolution_20", "unknown_116"], "attr": {"T": {"type": "DT_FLOAT"}}}, {"name": "PartitionedCall/transpose_78", "op": "Transpose", "input": ["PartitionedCall/Add_44", "PartitionedCall/transpose_78/perm"], "attr": {"Tperm": {"type": "DT_INT32"}, "T": {"type": "DT_FLOAT"}}}, {"name": "PartitionedCall/onnx_tf_prefix_Relu_197", "op": "Relu", "input": ["PartitionedCall/transpose_78"], "attr": {"T": {"type": "DT_FLOAT"}}}, {"name": "PartitionedCall/onnx_tf_prefix_BatchNormalization_198/mul_1", "op": "Mul", "input": ["PartitionedCall/onnx_tf_prefix_Relu_197", "PartitionedCall/onnx_tf_prefix_BatchNormalization_198/mul"], "attr": {"T": {"type": "DT_FLOAT"}}}, {"name": "PartitionedCall/onnx_tf_prefix_BatchNormalization_198/add_1", "op": "AddV2", "input": ["PartitionedCall/onnx_tf_prefix_BatchNormalization_198/mul_1", "PartitionedCall/onnx_tf_prefix_BatchNormalization_198/sub"], "attr": {"T": {"type": "DT_FLOAT"}}}, {"name": "PartitionedCall/Pad_17", "op": "Pad", "input": ["PartitionedCall/onnx_tf_prefix_BatchNormalization_198/add_1", "PartitionedCall/Const_91"], "attr": {"T": {"type": "DT_FLOAT"}, "Tpaddings": {"type": "DT_INT32"}}}, {"name": "PartitionedCall/transpose_80", "op": "Transpose", "input": ["PartitionedCall/Pad_17", "PartitionedCall/transpose_80/perm"], "attr": {"T": {"type": "DT_FLOAT"}, "Tperm": {"type": "DT_INT32"}}}, {"name": "PartitionedCall/convolution_21", "op": "Conv2D", "input": ["PartitionedCall/transpose_80", "PartitionedCall/split_42"], "device": "/device:CPU:0", "attr": {"strides": {"list": {"i": ["1", "1", "1", "1"]}}, "data_format": {"s": "TkhXQw=="}, "use_cudnn_on_gpu": {"b": true}, "explicit_paddings": {"list": {}}, "padding": {"s": "VkFMSUQ="}, "dilations": {"list": {"i": ["1", "1", "1", "1"]}}, "T": {"type": "DT_FLOAT"}}}, {"name": "PartitionedCall/Add_45", "op": "Add", "input": ["PartitionedCall/convolution_21", "unknown_122"], "attr": {"T": {"type": "DT_FLOAT"}}}, {"name": "PartitionedCall/transpose_81", "op": "Transpose", "input": ["PartitionedCall/Add_45", "PartitionedCall/transpose_81/perm"], "attr": {"Tperm": {"type": "DT_INT32"}, "T": {"type": "DT_FLOAT"}}}, {"name": "PartitionedCall/onnx_tf_prefix_Relu_200", "op": "Relu", "input": ["PartitionedCall/transpose_81"], "attr": {"T": {"type": "DT_FLOAT"}}}, {"name": "PartitionedCall/onnx_tf_prefix_BatchNormalization_201/mul_1", "op": "Mul", "input": ["PartitionedCall/onnx_tf_prefix_Relu_200", "PartitionedCall/onnx_tf_prefix_BatchNormalization_201/mul"], "attr": {"T": {"type": "DT_FLOAT"}}}, {"name": "PartitionedCall/onnx_tf_prefix_BatchNormalization_201/add_1", "op": "AddV2", "input": ["PartitionedCall/onnx_tf_prefix_BatchNormalization_201/mul_1", "PartitionedCall/onnx_tf_prefix_BatchNormalization_201/sub"], "attr": {"T": {"type": "DT_FLOAT"}}}, {"name": "PartitionedCall/transpose_83", "op": "Transpose", "input": ["PartitionedCall/onnx_tf_prefix_BatchNormalization_201/add_1", "PartitionedCall/transpose_83/perm"], "attr": {"T": {"type": "DT_FLOAT"}, "Tperm": {"type": "DT_INT32"}}}, {"name": "PartitionedCall/convolution_22", "op": "Conv2D", "input": ["PartitionedCall/transpose_83", "PartitionedCall/split_44"], "device": "/device:CPU:0", "attr": {"data_format": {"s": "TkhXQw=="}, "strides": {"list": {"i": ["1", "1", "1", "1"]}}, "use_cudnn_on_gpu": {"b": true}, "explicit_paddings": {"list": {}}, "padding": {"s": "VkFMSUQ="}, "dilations": {"list": {"i": ["1", "1", "1", "1"]}}, "T": {"type": "DT_FLOAT"}}}, {"name": "PartitionedCall/Add_46", "op": "Add", "input": ["PartitionedCall/convolution_22", "unknown_128"], "attr": {"T": {"type": "DT_FLOAT"}}}, {"name": "PartitionedCall/transpose_84", "op": "Transpose", "input": ["PartitionedCall/Add_46", "PartitionedCall/transpose_84/perm"], "attr": {"T": {"type": "DT_FLOAT"}, "Tperm": {"type": "DT_INT32"}}}, {"name": "PartitionedCall/onnx_tf_prefix_Transpose_203", "op": "Transpose", "input": ["PartitionedCall/transpose_84", "PartitionedCall/onnx_tf_prefix_Transpose_203/perm"], "attr": {"T": {"type": "DT_FLOAT"}, "Tperm": {"type": "DT_INT32"}}}, {"name": "PartitionedCall/onnx_tf_prefix_LogSoftmax_204", "op": "LogSoftmax", "input": ["PartitionedCall/onnx_tf_prefix_Transpose_203"], "attr": {"T": {"type": "DT_FLOAT"}}}, {"name": "PartitionedCall/onnx_tf_prefix_Transpose_205", "op": "Transpose", "input": ["PartitionedCall/onnx_tf_prefix_LogSoftmax_204", "PartitionedCall/onnx_tf_prefix_Transpose_205/perm"], "attr": {"T": {"type": "DT_FLOAT"}, "Tperm": {"type": "DT_INT32"}}}, {"name": "Identity", "op": "Identity", "input": ["PartitionedCall/onnx_tf_prefix_Transpose_205"], "attr": {"T": {"type": "DT_FLOAT"}}}], "library": {}, "versions": {"producer": 638}}, "weightsManifest": [{"paths": ["group1-shard1of28.bin", "group1-shard2of28.bin", "group1-shard3of28.bin", "group1-shard4of28.bin", "group1-shard5of28.bin", "group1-shard6of28.bin", "group1-shard7of28.bin", "group1-shard8of28.bin", "group1-shard9of28.bin", "group1-shard10of28.bin", "group1-shard11of28.bin", "group1-shard12of28.bin", "group1-shard13of28.bin", "group1-shard14of28.bin", "group1-shard15of28.bin", "group1-shard16of28.bin", "group1-shard17of28.bin", "group1-shard18of28.bin", "group1-shard19of28.bin", "group1-shard20of28.bin", "group1-shard21of28.bin", "group1-shard22of28.bin", "group1-shard23of28.bin", "group1-shard24of28.bin", "group1-shard25of28.bin", "group1-shard26of28.bin", "group1-shard27of28.bin", "group1-shard28of28.bin"], "weights": [{"name": "PartitionedCall/zeros_like_22", "shape": [1], "dtype": "int32"}, {"name": "PartitionedCall/onnx_tf_prefix_Unsqueeze_191/dim", "shape": [], "dtype": "int32"}, {"name": "PartitionedCall/zeros_11", "shape": [], "dtype": "int32"}, {"name": "PartitionedCall/Const_86", "shape": [], "dtype": "int32"}, {"name": "PartitionedCall/zeros_like_23", "shape": [1], "dtype": "int32"}, {"name": "PartitionedCall/onnx_tf_prefix_Gather_174", "shape": [], "dtype": "int32"}, {"name": "ConstantFolding/PartitionedCall/onnx_tf_prefix_Div_182_recip", "shape": [], "dtype": "float32"}, {"name": "PartitionedCall/onnx_tf_prefix_Constant_167", "shape": [], "dtype": "int32"}, {"name": "PartitionedCall/onnx_tf_prefix_Gather_168/axis", "shape": [], "dtype": "int32"}, {"name": "PartitionedCall/onnx_tf_prefix_Unsqueeze_192/dim", "shape": [], "dtype": "int32"}, {"name": "PartitionedCall/zeros_like_19", "shape": [1], "dtype": "int32"}, {"name": "PartitionedCall/onnx_tf_prefix_Unsqueeze_187/dim", "shape": [], "dtype": "int32"}, {"name": "PartitionedCall/zeros_10", "shape": [], "dtype": "int32"}, {"name": "PartitionedCall/Const_83", "shape": [], "dtype": "int32"}, {"name": "PartitionedCall/Shape_32", "shape": [4], "dtype": "int32"}, {"name": "PartitionedCall/zeros_like_20", "shape": [1], "dtype": "int32"}, {"name": "PartitionedCall/onnx_tf_prefix_Gather_171", "shape": [], "dtype": "int32"}, {"name": "ConstantFolding/PartitionedCall/onnx_tf_prefix_Div_177_recip", "shape": [], "dtype": "float32"}, {"name": "PartitionedCall/transpose_71/perm", "shape": [4], "dtype": "int32"}, {"name": "PartitionedCall/strided_slice_6", "shape": [2], "dtype": "float32"}, {"name": "PartitionedCall/zeros_like_16", "shape": [1], "dtype": "int32"}, {"name": "PartitionedCall/onnx_tf_prefix_Unsqueeze_150/dim", "shape": [], "dtype": "int32"}, {"name": "PartitionedCall/zeros_9", "shape": [], "dtype": "int32"}, {"name": "PartitionedCall/Const_72", "shape": [], "dtype": "int32"}, {"name": "PartitionedCall/zeros_like_17", "shape": [1], "dtype": "int32"}, {"name": "PartitionedCall/onnx_tf_prefix_Constant_132", "shape": [], "dtype": "int32"}, {"name": "PartitionedCall/onnx_tf_prefix_Gather_133/axis", "shape": [], "dtype": "int32"}, {"name": "ConstantFolding/PartitionedCall/onnx_tf_prefix_Div_141_recip", "shape": [], "dtype": "float32"}, {"name": "PartitionedCall/onnx_tf_prefix_Constant_126", "shape": [], "dtype": "int32"}, {"name": "PartitionedCall/onnx_tf_prefix_Gather_127/axis", "shape": [], "dtype": "int32"}, {"name": "PartitionedCall/onnx_tf_prefix_Unsqueeze_151/dim", "shape": [], "dtype": "int32"}, {"name": "PartitionedCall/zeros_like_13", "shape": [1], "dtype": "int32"}, {"name": "PartitionedCall/onnx_tf_prefix_Unsqueeze_146/dim", "shape": [], "dtype": "int32"}, {"name": "PartitionedCall/zeros_8", "shape": [], "dtype": "int32"}, {"name": "PartitionedCall/Const_69", "shape": [], "dtype": "int32"}, {"name": "PartitionedCall/zeros_like_14", "shape": [1], "dtype": "int32"}, {"name": "PartitionedCall/onnx_tf_prefix_Constant_129", "shape": [], "dtype": "int32"}, {"name": "PartitionedCall/onnx_tf_prefix_Gather_130/axis", "shape": [], "dtype": "int32"}, {"name": "ConstantFolding/PartitionedCall/onnx_tf_prefix_Div_136_recip", "shape": [], "dtype": "float32"}, {"name": "PartitionedCall/transpose_60/perm", "shape": [4], "dtype": "int32"}, {"name": "PartitionedCall/strided_slice_4", "shape": [2], "dtype": "float32"}, {"name": "PartitionedCall/zeros_like_10", "shape": [1], "dtype": "int32"}, {"name": "PartitionedCall/onnx_tf_prefix_Unsqueeze_109/dim", "shape": [], "dtype": "int32"}, {"name": "PartitionedCall/zeros_7", "shape": [], "dtype": "int32"}, {"name": "PartitionedCall/Const_58", "shape": [], "dtype": "int32"}, {"name": "PartitionedCall/zeros_like_11", "shape": [1], "dtype": "int32"}, {"name": "PartitionedCall/onnx_tf_prefix_Constant_91", "shape": [], "dtype": "int32"}, {"name": "PartitionedCall/onnx_tf_prefix_Gather_92/axis", "shape": [], "dtype": "int32"}, {"name": "ConstantFolding/PartitionedCall/onnx_tf_prefix_Div_100_recip", "shape": [], "dtype": "float32"}, {"name": "PartitionedCall/onnx_tf_prefix_Constant_85", "shape": [], "dtype": "int32"}, {"name": "PartitionedCall/onnx_tf_prefix_Gather_86/axis", "shape": [], "dtype": "int32"}, {"name": "PartitionedCall/onnx_tf_prefix_Unsqueeze_110/dim", "shape": [], "dtype": "int32"}, {"name": "PartitionedCall/zeros_like_7", "shape": [1], "dtype": "int32"}, {"name": "PartitionedCall/onnx_tf_prefix_Unsqueeze_105/dim", "shape": [], "dtype": "int32"}, {"name": "PartitionedCall/zeros_6", "shape": [], "dtype": "int32"}, {"name": "PartitionedCall/Const_55", "shape": [], "dtype": "int32"}, {"name": "PartitionedCall/zeros_like_8", "shape": [1], "dtype": "int32"}, {"name": "PartitionedCall/onnx_tf_prefix_Constant_88", "shape": [], "dtype": "int32"}, {"name": "PartitionedCall/onnx_tf_prefix_Gather_89/axis", "shape": [], "dtype": "int32"}, {"name": "ConstantFolding/PartitionedCall/onnx_tf_prefix_Div_95_recip", "shape": [], "dtype": "float32"}, {"name": "PartitionedCall/transpose_49/perm", "shape": [4], "dtype": "int32"}, {"name": "PartitionedCall/strided_slice_2", "shape": [2], "dtype": "float32"}, {"name": "PartitionedCall/zeros_like_4", "shape": [1], "dtype": "int32"}, {"name": "PartitionedCall/onnx_tf_prefix_Unsqueeze_68/dim", "shape": [], "dtype": "int32"}, {"name": "PartitionedCall/zeros_5", "shape": [], "dtype": "int32"}, {"name": "PartitionedCall/Const_44", "shape": [], "dtype": "int32"}, {"name": "PartitionedCall/zeros_like_5", "shape": [1], "dtype": "int32"}, {"name": "PartitionedCall/onnx_tf_prefix_Constant_50", "shape": [], "dtype": "int32"}, {"name": "PartitionedCall/onnx_tf_prefix_Gather_51/axis", "shape": [], "dtype": "int32"}, {"name": "ConstantFolding/PartitionedCall/onnx_tf_prefix_Div_59_recip", "shape": [], "dtype": "float32"}, {"name": "PartitionedCall/onnx_tf_prefix_Constant_44", "shape": [], "dtype": "int32"}, {"name": "PartitionedCall/onnx_tf_prefix_Gather_45/axis", "shape": [], "dtype": "int32"}, {"name": "PartitionedCall/onnx_tf_prefix_Unsqueeze_69/dim", "shape": [], "dtype": "int32"}, {"name": "PartitionedCall/zeros_like_1", "shape": [1], "dtype": "int32"}, {"name": "PartitionedCall/onnx_tf_prefix_Unsqueeze_64/dim", "shape": [], "dtype": "int32"}, {"name": "PartitionedCall/zeros_4", "shape": [], "dtype": "int32"}, {"name": "PartitionedCall/Const_41", "shape": [], "dtype": "int32"}, {"name": "PartitionedCall/zeros_like_2", "shape": [1], "dtype": "int32"}, {"name": "PartitionedCall/onnx_tf_prefix_Constant_47", "shape": [], "dtype": "int32"}, {"name": "PartitionedCall/onnx_tf_prefix_Gather_48/axis", "shape": [], "dtype": "int32"}, {"name": "ConstantFolding/PartitionedCall/onnx_tf_prefix_Div_54_recip", "shape": [], "dtype": "float32"}, {"name": "PartitionedCall/transpose_38/perm", "shape": [4], "dtype": "int32"}, {"name": "PartitionedCall/strided_slice", "shape": [2], "dtype": "float32"}, {"name": "PartitionedCall/Const_30", "shape": [8], "dtype": "int32"}, {"name": "PartitionedCall/All_3", "shape": [], "dtype": "bool"}, {"name": "PartitionedCall/transpose_30/perm", "shape": [4], "dtype": "int32"}, {"name": "PartitionedCall/transpose_31/perm", "shape": [4], "dtype": "int32"}, {"name": "PartitionedCall/Const_32", "shape": [4, 2], "dtype": "int32"}, {"name": "PartitionedCall/transpose_33/perm", "shape": [4], "dtype": "int32"}, {"name": "PartitionedCall/split_16", "shape": [3, 3, 512, 1024], "dtype": "float32"}, {"name": "unknown_48", "shape": [1024], "dtype": "float32"}, {"name": "PartitionedCall/transpose_34/perm", "shape": [4], "dtype": "int32"}, {"name": "PartitionedCall/onnx_tf_prefix_BatchNormalization_34/mul", "shape": [1, 1024, 1, 1], "dtype": "float32"}, {"name": "PartitionedCall/onnx_tf_prefix_BatchNormalization_34/sub", "shape": [1, 1024, 1, 1], "dtype": "float32"}, {"name": "PartitionedCall/Const_35", "shape": [4, 2], "dtype": "int32"}, {"name": "PartitionedCall/transpose_36/perm", "shape": [4], "dtype": "int32"}, {"name": "PartitionedCall/split_18", "shape": [3, 3, 1024, 1024], "dtype": "float32"}, {"name": "unknown_54", "shape": [1024], "dtype": "float32"}, {"name": "PartitionedCall/transpose_37/perm", "shape": [4], "dtype": "int32"}, {"name": "PartitionedCall/onnx_tf_prefix_BatchNormalization_37/mul", "shape": [1, 1024, 1, 1], "dtype": "float32"}, {"name": "PartitionedCall/onnx_tf_prefix_BatchNormalization_37/sub", "shape": [1, 1024, 1, 1], "dtype": "float32"}, {"name": "PartitionedCall/strided_slice_1/stack", "shape": [1], "dtype": "int32"}, {"name": "PartitionedCall/strided_slice_1/stack_1", "shape": [1], "dtype": "int32"}, {"name": "PartitionedCall/strided_slice_1/stack_2", "shape": [1], "dtype": "int32"}, {"name": "PartitionedCall/split_20", "shape": [1, 1, 1024, 512], "dtype": "float32"}, {"name": "unknown_61", "shape": [512], "dtype": "float32"}, {"name": "PartitionedCall/transpose_42/perm", "shape": [4], "dtype": "int32"}, {"name": "PartitionedCall/onnx_tf_prefix_Constant_41", "shape": [], "dtype": "int32"}, {"name": "PartitionedCall/onnx_tf_prefix_Gather_42/axis", "shape": [], "dtype": "int32"}, {"name": "PartitionedCall/onnx_tf_prefix_Unsqueeze_65/dim", "shape": [], "dtype": "int32"}, {"name": "PartitionedCall/Const_22", "shape": [8], "dtype": "int32"}, {"name": "PartitionedCall/All_2", "shape": [], "dtype": "bool"}, {"name": "PartitionedCall/transpose_22/perm", "shape": [4], "dtype": "int32"}, {"name": "PartitionedCall/transpose_23/perm", "shape": [4], "dtype": "int32"}, {"name": "PartitionedCall/Const_24", "shape": [4, 2], "dtype": "int32"}, {"name": "PartitionedCall/transpose_25/perm", "shape": [4], "dtype": "int32"}, {"name": "PartitionedCall/split_12", "shape": [3, 3, 256, 512], "dtype": "float32"}, {"name": "unknown_36", "shape": [512], "dtype": "float32"}, {"name": "PartitionedCall/transpose_26/perm", "shape": [4], "dtype": "int32"}, {"name": "PartitionedCall/onnx_tf_prefix_BatchNormalization_26/mul", "shape": [1, 512, 1, 1], "dtype": "float32"}, {"name": "PartitionedCall/onnx_tf_prefix_BatchNormalization_26/sub", "shape": [1, 512, 1, 1], "dtype": "float32"}, {"name": "PartitionedCall/Const_27", "shape": [4, 2], "dtype": "int32"}, {"name": "PartitionedCall/transpose_28/perm", "shape": [4], "dtype": "int32"}, {"name": "PartitionedCall/split_14", "shape": [3, 3, 512, 512], "dtype": "float32"}, {"name": "unknown_42", "shape": [512], "dtype": "float32"}, {"name": "PartitionedCall/transpose_29/perm", "shape": [4], "dtype": "int32"}, {"name": "PartitionedCall/onnx_tf_prefix_BatchNormalization_29/mul", "shape": [1, 512, 1, 1], "dtype": "float32"}, {"name": "PartitionedCall/onnx_tf_prefix_BatchNormalization_29/sub", "shape": [1, 512, 1, 1], "dtype": "float32"}, {"name": "PartitionedCall/Const_40", "shape": [], "dtype": "int32"}, {"name": "PartitionedCall/ExpandDims", "shape": [1, 1], "dtype": "int32"}, {"name": "PartitionedCall/Cast_3", "shape": [1], "dtype": "int32"}, {"name": "PartitionedCall/onnx_tf_prefix_Constant_66", "shape": [1], "dtype": "int32"}, {"name": "PartitionedCall/Const_42", "shape": [], "dtype": "int32"}, {"name": "PartitionedCall/Const_43", "shape": [], "dtype": "int32"}, {"name": "PartitionedCall/ExpandDims_1", "shape": [1, 1], "dtype": "int32"}, {"name": "PartitionedCall/Cast_5", "shape": [1], "dtype": "int32"}, {"name": "PartitionedCall/onnx_tf_prefix_Constant_70", "shape": [1], "dtype": "int32"}, {"name": "PartitionedCall/Const_45", "shape": [], "dtype": "int32"}, {"name": "PartitionedCall/onnx_tf_prefix_Concat_72/axis", "shape": [], "dtype": "int32"}, {"name": "PartitionedCall/Const_46", "shape": [4, 2], "dtype": "int32"}, {"name": "PartitionedCall/transpose_44/perm", "shape": [4], "dtype": "int32"}, {"name": "PartitionedCall/split_22", "shape": [3, 3, 1024, 512], "dtype": "float32"}, {"name": "unknown_65", "shape": [512], "dtype": "float32"}, {"name": "PartitionedCall/transpose_45/perm", "shape": [4], "dtype": "int32"}, {"name": "PartitionedCall/onnx_tf_prefix_BatchNormalization_75/mul", "shape": [1, 512, 1, 1], "dtype": "float32"}, {"name": "PartitionedCall/onnx_tf_prefix_BatchNormalization_75/sub", "shape": [1, 512, 1, 1], "dtype": "float32"}, {"name": "PartitionedCall/Const_49", "shape": [4, 2], "dtype": "int32"}, {"name": "PartitionedCall/transpose_47/perm", "shape": [4], "dtype": "int32"}, {"name": "PartitionedCall/split_24", "shape": [3, 3, 512, 512], "dtype": "float32"}, {"name": "unknown_71", "shape": [512], "dtype": "float32"}, {"name": "PartitionedCall/transpose_48/perm", "shape": [4], "dtype": "int32"}, {"name": "PartitionedCall/onnx_tf_prefix_BatchNormalization_78/mul", "shape": [1, 512, 1, 1], "dtype": "float32"}, {"name": "PartitionedCall/onnx_tf_prefix_BatchNormalization_78/sub", "shape": [1, 512, 1, 1], "dtype": "float32"}, {"name": "PartitionedCall/strided_slice_3/stack", "shape": [1], "dtype": "int32"}, {"name": "PartitionedCall/strided_slice_3/stack_1", "shape": [1], "dtype": "int32"}, {"name": "PartitionedCall/strided_slice_3/stack_2", "shape": [1], "dtype": "int32"}, {"name": "PartitionedCall/split_26", "shape": [1, 1, 512, 256], "dtype": "float32"}, {"name": "unknown_78", "shape": [256], "dtype": "float32"}, {"name": "PartitionedCall/transpose_53/perm", "shape": [4], "dtype": "int32"}, {"name": "PartitionedCall/onnx_tf_prefix_Constant_82", "shape": [], "dtype": "int32"}, {"name": "PartitionedCall/onnx_tf_prefix_Gather_83/axis", "shape": [], "dtype": "int32"}, {"name": "PartitionedCall/onnx_tf_prefix_Unsqueeze_106/dim", "shape": [], "dtype": "int32"}, {"name": "PartitionedCall/Const_14", "shape": [8], "dtype": "int32"}, {"name": "PartitionedCall/All_1", "shape": [], "dtype": "bool"}, {"name": "PartitionedCall/transpose_14/perm", "shape": [4], "dtype": "int32"}, {"name": "PartitionedCall/transpose_15/perm", "shape": [4], "dtype": "int32"}, {"name": "PartitionedCall/Const_16", "shape": [4, 2], "dtype": "int32"}, {"name": "PartitionedCall/transpose_17/perm", "shape": [4], "dtype": "int32"}, {"name": "PartitionedCall/split_8", "shape": [3, 3, 128, 256], "dtype": "float32"}, {"name": "unknown_24", "shape": [256], "dtype": "float32"}, {"name": "PartitionedCall/transpose_18/perm", "shape": [4], "dtype": "int32"}, {"name": "PartitionedCall/onnx_tf_prefix_BatchNormalization_18/mul", "shape": [1, 256, 1, 1], "dtype": "float32"}, {"name": "PartitionedCall/onnx_tf_prefix_BatchNormalization_18/sub", "shape": [1, 256, 1, 1], "dtype": "float32"}, {"name": "PartitionedCall/Const_19", "shape": [4, 2], "dtype": "int32"}, {"name": "PartitionedCall/transpose_20/perm", "shape": [4], "dtype": "int32"}, {"name": "PartitionedCall/split_10", "shape": [3, 3, 256, 256], "dtype": "float32"}, {"name": "unknown_30", "shape": [256], "dtype": "float32"}, {"name": "PartitionedCall/transpose_21/perm", "shape": [4], "dtype": "int32"}, {"name": "PartitionedCall/onnx_tf_prefix_BatchNormalization_21/mul", "shape": [1, 256, 1, 1], "dtype": "float32"}, {"name": "PartitionedCall/onnx_tf_prefix_BatchNormalization_21/sub", "shape": [1, 256, 1, 1], "dtype": "float32"}, {"name": "PartitionedCall/Const_54", "shape": [], "dtype": "int32"}, {"name": "PartitionedCall/ExpandDims_2", "shape": [1, 1], "dtype": "int32"}, {"name": "PartitionedCall/Cast_9", "shape": [1], "dtype": "int32"}, {"name": "PartitionedCall/onnx_tf_prefix_Constant_107", "shape": [1], "dtype": "int32"}, {"name": "PartitionedCall/Const_56", "shape": [], "dtype": "int32"}, {"name": "PartitionedCall/Const_57", "shape": [], "dtype": "int32"}, {"name": "PartitionedCall/ExpandDims_3", "shape": [1, 1], "dtype": "int32"}, {"name": "PartitionedCall/Cast_11", "shape": [1], "dtype": "int32"}, {"name": "PartitionedCall/onnx_tf_prefix_Constant_111", "shape": [1], "dtype": "int32"}, {"name": "PartitionedCall/Const_59", "shape": [], "dtype": "int32"}, {"name": "PartitionedCall/onnx_tf_prefix_Concat_113/axis", "shape": [], "dtype": "int32"}, {"name": "PartitionedCall/Const_60", "shape": [4, 2], "dtype": "int32"}, {"name": "PartitionedCall/transpose_55/perm", "shape": [4], "dtype": "int32"}, {"name": "PartitionedCall/split_28", "shape": [3, 3, 512, 256], "dtype": "float32"}, {"name": "unknown_82", "shape": [256], "dtype": "float32"}, {"name": "PartitionedCall/transpose_56/perm", "shape": [4], "dtype": "int32"}, {"name": "PartitionedCall/onnx_tf_prefix_BatchNormalization_116/mul", "shape": [1, 256, 1, 1], "dtype": "float32"}, {"name": "PartitionedCall/onnx_tf_prefix_BatchNormalization_116/sub", "shape": [1, 256, 1, 1], "dtype": "float32"}, {"name": "PartitionedCall/Const_63", "shape": [4, 2], "dtype": "int32"}, {"name": "PartitionedCall/transpose_58/perm", "shape": [4], "dtype": "int32"}, {"name": "PartitionedCall/split_30", "shape": [3, 3, 256, 256], "dtype": "float32"}, {"name": "unknown_88", "shape": [256], "dtype": "float32"}, {"name": "PartitionedCall/transpose_59/perm", "shape": [4], "dtype": "int32"}, {"name": "PartitionedCall/onnx_tf_prefix_BatchNormalization_119/mul", "shape": [1, 256, 1, 1], "dtype": "float32"}, {"name": "PartitionedCall/onnx_tf_prefix_BatchNormalization_119/sub", "shape": [1, 256, 1, 1], "dtype": "float32"}, {"name": "PartitionedCall/strided_slice_5/stack", "shape": [1], "dtype": "int32"}, {"name": "PartitionedCall/strided_slice_5/stack_1", "shape": [1], "dtype": "int32"}, {"name": "PartitionedCall/strided_slice_5/stack_2", "shape": [1], "dtype": "int32"}, {"name": "PartitionedCall/split_32", "shape": [1, 1, 256, 128], "dtype": "float32"}, {"name": "unknown_95", "shape": [128], "dtype": "float32"}, {"name": "PartitionedCall/transpose_64/perm", "shape": [4], "dtype": "int32"}, {"name": "PartitionedCall/onnx_tf_prefix_Constant_123", "shape": [], "dtype": "int32"}, {"name": "PartitionedCall/onnx_tf_prefix_Gather_124/axis", "shape": [], "dtype": "int32"}, {"name": "PartitionedCall/onnx_tf_prefix_Unsqueeze_147/dim", "shape": [], "dtype": "int32"}, {"name": "PartitionedCall/Const", "shape": [4, 2], "dtype": "int32"}, {"name": "PartitionedCall/transpose_1/perm", "shape": [4], "dtype": "int32"}, {"name": "PartitionedCall/split", "shape": [3, 3, 1, 64], "dtype": "float32"}, {"name": "unknown_0", "shape": [64], "dtype": "float32"}, {"name": "PartitionedCall/transpose_2/perm", "shape": [4], "dtype": "int32"}, {"name": "PartitionedCall/onnx_tf_prefix_BatchNormalization_2/mul", "shape": [1, 64, 1, 1], "dtype": "float32"}, {"name": "PartitionedCall/onnx_tf_prefix_BatchNormalization_2/sub", "shape": [1, 64, 1, 1], "dtype": "float32"}, {"name": "PartitionedCall/Const_3", "shape": [4, 2], "dtype": "int32"}, {"name": "PartitionedCall/transpose_4/perm", "shape": [4], "dtype": "int32"}, {"name": "PartitionedCall/split_2", "shape": [3, 3, 64, 64], "dtype": "float32"}, {"name": "unknown_6", "shape": [64], "dtype": "float32"}, {"name": "PartitionedCall/transpose_5/perm", "shape": [4], "dtype": "int32"}, {"name": "PartitionedCall/onnx_tf_prefix_BatchNormalization_5/mul", "shape": [1, 64, 1, 1], "dtype": "float32"}, {"name": "PartitionedCall/onnx_tf_prefix_BatchNormalization_5/sub", "shape": [1, 64, 1, 1], "dtype": "float32"}, {"name": "PartitionedCall/Const_6", "shape": [8], "dtype": "int32"}, {"name": "PartitionedCall/All", "shape": [], "dtype": "bool"}, {"name": "PartitionedCall/transpose_6/perm", "shape": [4], "dtype": "int32"}, {"name": "PartitionedCall/transpose_7/perm", "shape": [4], "dtype": "int32"}, {"name": "PartitionedCall/Const_8", "shape": [4, 2], "dtype": "int32"}, {"name": "PartitionedCall/transpose_9/perm", "shape": [4], "dtype": "int32"}, {"name": "PartitionedCall/split_4", "shape": [3, 3, 64, 128], "dtype": "float32"}, {"name": "unknown_12", "shape": [128], "dtype": "float32"}, {"name": "PartitionedCall/transpose_10/perm", "shape": [4], "dtype": "int32"}, {"name": "PartitionedCall/onnx_tf_prefix_BatchNormalization_10/mul", "shape": [1, 128, 1, 1], "dtype": "float32"}, {"name": "PartitionedCall/onnx_tf_prefix_BatchNormalization_10/sub", "shape": [1, 128, 1, 1], "dtype": "float32"}, {"name": "PartitionedCall/Const_11", "shape": [4, 2], "dtype": "int32"}, {"name": "PartitionedCall/transpose_12/perm", "shape": [4], "dtype": "int32"}, {"name": "PartitionedCall/split_6", "shape": [3, 3, 128, 128], "dtype": "float32"}, {"name": "unknown_18", "shape": [128], "dtype": "float32"}, {"name": "PartitionedCall/transpose_13/perm", "shape": [4], "dtype": "int32"}, {"name": "PartitionedCall/onnx_tf_prefix_BatchNormalization_13/mul", "shape": [1, 128, 1, 1], "dtype": "float32"}, {"name": "PartitionedCall/onnx_tf_prefix_BatchNormalization_13/sub", "shape": [1, 128, 1, 1], "dtype": "float32"}, {"name": "PartitionedCall/Const_68", "shape": [], "dtype": "int32"}, {"name": "PartitionedCall/ExpandDims_4", "shape": [1, 1], "dtype": "int32"}, {"name": "PartitionedCall/Cast_15", "shape": [1], "dtype": "int32"}, {"name": "PartitionedCall/onnx_tf_prefix_Constant_148", "shape": [1], "dtype": "int32"}, {"name": "PartitionedCall/Const_70", "shape": [], "dtype": "int32"}, {"name": "PartitionedCall/Const_71", "shape": [], "dtype": "int32"}, {"name": "PartitionedCall/ExpandDims_5", "shape": [1, 1], "dtype": "int32"}, {"name": "PartitionedCall/Cast_17", "shape": [1], "dtype": "int32"}, {"name": "PartitionedCall/onnx_tf_prefix_Constant_152", "shape": [1], "dtype": "int32"}, {"name": "PartitionedCall/Const_73", "shape": [], "dtype": "int32"}, {"name": "PartitionedCall/onnx_tf_prefix_Concat_154/axis", "shape": [], "dtype": "int32"}, {"name": "PartitionedCall/Const_74", "shape": [4, 2], "dtype": "int32"}, {"name": "PartitionedCall/transpose_66/perm", "shape": [4], "dtype": "int32"}, {"name": "PartitionedCall/split_34", "shape": [3, 3, 256, 128], "dtype": "float32"}, {"name": "unknown_99", "shape": [128], "dtype": "float32"}, {"name": "PartitionedCall/transpose_67/perm", "shape": [4], "dtype": "int32"}, {"name": "PartitionedCall/onnx_tf_prefix_BatchNormalization_157/mul", "shape": [1, 128, 1, 1], "dtype": "float32"}, {"name": "PartitionedCall/onnx_tf_prefix_BatchNormalization_157/sub", "shape": [1, 128, 1, 1], "dtype": "float32"}, {"name": "PartitionedCall/Const_77", "shape": [4, 2], "dtype": "int32"}, {"name": "PartitionedCall/transpose_69/perm", "shape": [4], "dtype": "int32"}, {"name": "PartitionedCall/split_36", "shape": [3, 3, 128, 128], "dtype": "float32"}, {"name": "unknown_105", "shape": [128], "dtype": "float32"}, {"name": "PartitionedCall/transpose_70/perm", "shape": [4], "dtype": "int32"}, {"name": "PartitionedCall/onnx_tf_prefix_BatchNormalization_160/mul", "shape": [1, 128, 1, 1], "dtype": "float32"}, {"name": "PartitionedCall/onnx_tf_prefix_BatchNormalization_160/sub", "shape": [1, 128, 1, 1], "dtype": "float32"}, {"name": "PartitionedCall/strided_slice_7/stack", "shape": [1], "dtype": "int32"}, {"name": "PartitionedCall/strided_slice_7/stack_1", "shape": [1], "dtype": "int32"}, {"name": "PartitionedCall/strided_slice_7/stack_2", "shape": [1], "dtype": "int32"}, {"name": "PartitionedCall/split_38", "shape": [1, 1, 128, 64], "dtype": "float32"}, {"name": "unknown_112", "shape": [64], "dtype": "float32"}, {"name": "PartitionedCall/transpose_75/perm", "shape": [4], "dtype": "int32"}, {"name": "PartitionedCall/onnx_tf_prefix_Constant_164", "shape": [], "dtype": "int32"}, {"name": "PartitionedCall/onnx_tf_prefix_Gather_165/axis", "shape": [], "dtype": "int32"}, {"name": "PartitionedCall/onnx_tf_prefix_Unsqueeze_188/dim", "shape": [], "dtype": "int32"}, {"name": "PartitionedCall/GatherNd_6", "shape": [1], "dtype": "int32"}, {"name": "PartitionedCall/Const_82", "shape": [], "dtype": "int32"}, {"name": "PartitionedCall/ExpandDims_6", "shape": [1, 1], "dtype": "int32"}, {"name": "PartitionedCall/Cast_21", "shape": [1], "dtype": "int32"}, {"name": "PartitionedCall/onnx_tf_prefix_Constant_189", "shape": [1], "dtype": "int32"}, {"name": "PartitionedCall/Const_84", "shape": [], "dtype": "int32"}, {"name": "PartitionedCall/Const_85", "shape": [], "dtype": "int32"}, {"name": "PartitionedCall/ExpandDims_7", "shape": [1, 1], "dtype": "int32"}, {"name": "PartitionedCall/Cast_23", "shape": [1], "dtype": "int32"}, {"name": "PartitionedCall/onnx_tf_prefix_Constant_193", "shape": [1], "dtype": "int32"}, {"name": "PartitionedCall/Const_87", "shape": [], "dtype": "int32"}, {"name": "PartitionedCall/onnx_tf_prefix_Concat_195/axis", "shape": [], "dtype": "int32"}, {"name": "PartitionedCall/Const_88", "shape": [4, 2], "dtype": "int32"}, {"name": "PartitionedCall/transpose_77/perm", "shape": [4], "dtype": "int32"}, {"name": "PartitionedCall/split_40", "shape": [3, 3, 128, 64], "dtype": "float32"}, {"name": "unknown_116", "shape": [64], "dtype": "float32"}, {"name": "PartitionedCall/transpose_78/perm", "shape": [4], "dtype": "int32"}, {"name": "PartitionedCall/onnx_tf_prefix_BatchNormalization_198/mul", "shape": [1, 64, 1, 1], "dtype": "float32"}, {"name": "PartitionedCall/onnx_tf_prefix_BatchNormalization_198/sub", "shape": [1, 64, 1, 1], "dtype": "float32"}, {"name": "PartitionedCall/Const_91", "shape": [4, 2], "dtype": "int32"}, {"name": "PartitionedCall/transpose_80/perm", "shape": [4], "dtype": "int32"}, {"name": "PartitionedCall/split_42", "shape": [3, 3, 64, 64], "dtype": "float32"}, {"name": "unknown_122", "shape": [64], "dtype": "float32"}, {"name": "PartitionedCall/transpose_81/perm", "shape": [4], "dtype": "int32"}, {"name": "PartitionedCall/onnx_tf_prefix_BatchNormalization_201/mul", "shape": [1, 64, 1, 1], "dtype": "float32"}, {"name": "PartitionedCall/onnx_tf_prefix_BatchNormalization_201/sub", "shape": [1, 64, 1, 1], "dtype": "float32"}, {"name": "PartitionedCall/transpose_83/perm", "shape": [4], "dtype": "int32"}, {"name": "PartitionedCall/split_44", "shape": [1, 1, 64, 3], "dtype": "float32"}, {"name": "unknown_128", "shape": [3], "dtype": "float32"}, {"name": "PartitionedCall/transpose_84/perm", "shape": [4], "dtype": "int32"}, {"name": "PartitionedCall/onnx_tf_prefix_Transpose_203/perm", "shape": [4], "dtype": "int32"}, {"name": "PartitionedCall/onnx_tf_prefix_Transpose_205/perm", "shape": [4], "dtype": "int32"}, {"name": "PartitionedCall/cond_3/else/_160/range_1", "shape": [4], "dtype": "int32"}, {"name": "PartitionedCall/cond_3/else/_160/GatherV2_1/axis", "shape": [], "dtype": "int32"}, {"name": "PartitionedCall/cond_3/else/_160/range", "shape": [4], "dtype": "int32"}, {"name": "PartitionedCall/cond_3/else/_160/GatherV2/axis", "shape": [], "dtype": "int32"}, {"name": "PartitionedCall/cond_2/else/_151/range_1", "shape": [4], "dtype": "int32"}, {"name": "PartitionedCall/cond_2/else/_151/GatherV2_1/axis", "shape": [], "dtype": "int32"}, {"name": "PartitionedCall/cond_2/else/_151/range", "shape": [4], "dtype": "int32"}, {"name": "PartitionedCall/cond_2/else/_151/GatherV2/axis", "shape": [], "dtype": "int32"}, {"name": "PartitionedCall/cond_1/else/_142/range_1", "shape": [4], "dtype": "int32"}, {"name": "PartitionedCall/cond_1/else/_142/GatherV2_1/axis", "shape": [], "dtype": "int32"}, {"name": "PartitionedCall/cond_1/else/_142/range", "shape": [4], "dtype": "int32"}, {"name": "PartitionedCall/cond_1/else/_142/GatherV2/axis", "shape": [], "dtype": "int32"}, {"name": "PartitionedCall/cond/else/_133/Shape", "shape": [4], "dtype": "int32"}, {"name": "PartitionedCall/cond/else/_133/range_1", "shape": [4], "dtype": "int32"}, {"name": "PartitionedCall/cond/else/_133/GatherV2_1/axis", "shape": [], "dtype": "int32"}, {"name": "PartitionedCall/cond/else/_133/range", "shape": [4], "dtype": "int32"}, {"name": "PartitionedCall/cond/else/_133/GatherV2/axis", "shape": [], "dtype": "int32"}]}]}